YOLO_LSTM/best_model_640.pth (torch, 643362 bytes, 17 tensors)

lstm.weight_ih_l0 f4 [256, 51]
000000 54 ec 87 3e cd 76 a3 3e e3 a6 80 3b e4 b7 88 3e
       0.26547492 0.31926575 0.0039261444 0.26702797
000010 5a 66 28 3e ac bd 9c 3d 2a e7 8d 3d bd 77 7a 3e
       0.16445294 0.076533645 0.06928857 0.24459739
000020 e0 5e a6 3d 02 ba 95 bc 78 2c 47 3e 9d 3d dc 3d
       0.08123565 -0.018277172 0.19450557 0.10753939
000030 92 7b 6d 3e 3e 87 28 3e dd f0 2e 3d 25 c8 e2 3d
       0.2319167 0.16457841 0.042710174 0.11073331
000040 f0 0b 8c 3e 69 32 fc 3d e2 aa a5 3d a8 5d 67 3e
       0.27352858 0.123143025 0.08089234 0.22594321
000050 ef 39 25 3d 97 03 e1 3d ef c8 ce 3d c0 2a 4e 3e
       0.040338453 0.10987013 0.10096919 0.20133495
000060 7e 43 18 3a 8a c3 bc 3d 6a cf 52 3d 4b 4a 0f 3c
       0.0005808397 0.092169836 0.051467337 0.00874574
000070 90 04 08 3e c1 63 0c bc f1 41 3e 3e ea 26 e3 3c
       0.1328299 -0.008568705 0.18579842 0.027728517
000080 df 89 3c 3e f9 fd 20 3e 52 04 ec 3d 79 7f 3b 3e
       0.18411969 0.15721883 0.115242615 0.18310346
000090 6c 3f 29 3e f7 b5 86 3e 9e 33 f4 3d d1 e3 99 3d
       0.165281 0.26310703 0.11923908 0.07514156
0000a0 ad a8 08 3e 53 86 7e 3d 11 71 1e 3e 1e 92 62 3e
       0.13345595 0.06213982 0.15472819 0.22126052
0000b0 a2 13 28 3e a3 8b c5 3d 2a 7e 38 3e 5d 48 f6 3d
       0.1641374 0.09645774 0.18016878 0.12025521
0000c0 a9 33 40 3e 76 e2 04 3d f4 16 11 bd c0 a1 3a 3d
       0.18769707 0.032442532 -0.03542228 0.045564413
0000d0 9c 1c 99 bb d9 bc c8 3d e2 a3 b3 3d 68 cc ff 3d
       -0.0046726 0.09801645 0.087714925 0.12490159
0000e0 85 24 0e 3d c2 18 b6 3d 77 c0 40 3e 34 ed 22 be
       0.034702796 0.08891441 0.1882342 -0.15910798
0000f0 d4 6a 7c 3d 86 67 37 bd 79 ac 06 3e 7a f9 22 3d
       0.061625317 -0.044776462 0.1315173 0.0397887
000100 63 95 8b 3d 9d f5 ae bc dd 2a 52 3e 2a 9a c1 3b
       0.06815603 -0.021357352 0.20524164 0.0059082704
000110 3d 0a 00 3d 6b dc 2e 3d 5a 42 4a 3e c4 4f 0d 3e
       0.031259764 0.042690676 0.19751874 0.1379996
000120 23 43 62 3e 96 02 00 bd a4 42 36 3b 55 a5 06 bc
       0.22095923 -0.031252466 0.0027810717 -0.008218129
000130 3c ee 06 bd bf cd 16 3e dc 9a ea 3d c9 6a 18 3e
       -0.03294204 0.14726923 0.11455318 0.14884485
000140 01 fe 89 3d 99 47 8f 3c 3e 01 00 3e c7 fb 6e 3d
       0.067379005 0.017490195 0.12500474 0.058345582
000150 c7 61 38 3e b4 a7 45 3d a6 ca 3d 3e 1c 45 4e 3c
       0.18006049 0.048255637 0.18534335 0.012589719
000160 e8 a7 83 3c 63 3d 1b 3e 73 d3 c5 3d e4 16 fe 3c
       0.016071275 0.15160136 0.09659471 0.031016774
000170 d8 9f 41 3e 95 9a 1b 3e e2 b0 e5 bc af ba 39 3d
       0.18908632 0.15195687 -0.028038446 0.04534405
000180 0b 01 3b 3e b5 a3 8c 3c 75 f6 88 3d 8b 1e 87 bd
       0.18262117 0.017167905 0.06687633 -0.065976225
000190 f0 08 a2 bc 72 b5 09 3e dd 74 9b 3d ee 47 74 3b
       -0.019779652 0.13448122 0.07590649 0.0037274319
0001a0 5f d5 43 bd 3d 2c 35 bd 37 e8 18 bd 38 3e d9 bd
       -0.04781091 -0.044231642 -0.037330832 -0.106075704
0001b0 4f 96 79 bd 49 1e 59 bc 4d 2f 1d 3d 79 5c b1 3d
       -0.06093436 -0.013251849 0.038375188 0.08660216
0001c0 8d 42 04 3e 91 43 6e bd 41 07 17 bc ad 43 eb 3b
       0.12916012 -0.058169905 -0.009218038 0.0071796984
0001d0 3b 4e f8 bc 17 d5 9e 3a 56 d0 58 3d f8 82 69 bc
       -0.03031074 0.0012117949 0.05293306 -0.014252417
0001e0 f4 25 f4 3d b9 f2 7d 3d 9d 4a 57 3d de 71 b5 3c
       0.119213015 0.061999056 0.05256139 0.022149023
0001f0 46 54 df 3c 1b 45 10 bc 0c 08 8e 3d 6a e4 fe 3b
       0.027261864 -0.0088055385 0.069351286 0.007778694
000200 ef 04 1b 3e 07 88 75 3d cf 69 63 3e ae 02 d2 3d
       0.15138601 0.05994418 0.22208332 0.10254417
000210 f0 7a be ba 49 01 49 3e 46 a5 41 3b b9 cb 85 3d
       -0.0014532488 0.19629396 0.0029547974 0.06532998
000220 8f ab ba bc 15 71 59 bd f3 58 19 3e f9 ff 5b 3d
       -0.022786884 -0.05308636 0.14975338 0.05371091
000230 f2 74 f6 3d 0d 96 aa bc 5d b0 20 3e c3 1b 0b bd
       0.12034024 -0.020823503 0.15692277 -0.033962023
000240 93 45 6f 3d f9 51 c3 3d 29 c8 f6 3d 7d a8 48 3e
       0.05841596 0.095371194 0.12049896 0.19595523
000250 9e a8 31 3e e2 d8 61 bd 85 3c bc 3d 2d 1f 50 bc
       0.17349479 -0.055138476 0.09191231 -0.012702745
000260 36 13 df 3c 1d 90 09 be 61 4c 1e 3e a0 e8 a3 bd
       0.02723084 -0.13433881 0.15458824 -0.08003354
000270 b4 00 38 3d 20 30 c3 3d 37 54 93 3d 9f f9 c5 bd
       0.044922546 0.095306635 0.07193797 -0.09666752
000280 71 05 2c 3e f2 6b 63 3d a8 a2 02 bb dd 16 c4 bd
       0.1679895 0.055522867 -0.0019933376 -0.09574673
000290 2f ab 7b 3d cd 5d 49 bc 2e e5 d2 b9 bd b3 ba 3d
       0.06144255 -0.01229043 -0.00040225073 0.091163136
0002a0 ce 5e cc 3c ba dc 3f 3b 92 3a 3f bd 84 ce ef bb
       0.02494755 0.002927585 -0.046686716 -0.0073183198
0002b0 af 67 1a 3e 40 7f 7c bc f7 75 a1 bd 21 48 57 3b
       0.15078615 -0.015411198 -0.07883828 0.0032849389
0002c0 be 78 ba bd e5 fe 77 3c 0b e9 16 3e ab 40 08 be
       -0.09105061 0.015136455 0.14737336 -0.13305919
0002d0 d2 9c ec 3a a5 c1 ad 3d 39 de 4c 3c 44 fd d4 bd
       0.0018052107 0.084842004 0.012504154 -0.10399869
0002e0 de 9a b2 3d cf 11 10 3d a4 73 12 3d 96 65 0c 3d
       0.08720945 0.035173234 0.035754815 0.034276567
0002f0 ea 5d b8 bc a0 0e 63 b9 e3 dd 0e 3d ad c4 dd bc
       -0.02250572 -0.00021653855 0.034879576 -0.027071321
000300 67 df 9a 3d 05 9b f0 3d 2e ea ac bc d4 10 10 bd
       0.07562142 0.11748318 -0.02110776 -0.0351723
000310 eb c5 9e 3c 11 76 93 bc b0 5f ed 3c 99 15 dd 3c
       0.019381484 -0.018000634 0.028976291 0.026987838
000320 98 e0 01 be 2b 7d 38 bd 86 89 db 3d 41 73 fb 3c
       -0.12683332 -0.045041244 0.1071959 0.030694606
000330 63 4b 87 3c 96 e1 aa bd 81 02 55 3c 47 ee 3a bc
       0.01651544 -0.08343808 0.013001085 -0.011409349
000340 88 18 26 3d 42 d4 ed 3d 6f 66 8b 3d 18 be 55 3c
       0.04055074 0.116127506 0.06806647 0.01304581
000350 9e 68 c0 bd 3f 03 58 3d 89 a9 d3 3d bc ae 87 3e
       -0.09394954 0.05273747 0.10335071 0.265005
000360 e2 4e d0 3d 42 74 f7 bb c1 64 0f 3e 6b fd 03 3d
       0.10171296 -0.007551701 0.14003278 0.0322241
000370 e1 2a 06 bc e6 ff 6b 3e 1e 4e 56 3d 6d df 54 3d
       -0.008188934 0.23046836 0.052320592 0.051970888
000380 97 73 d0 3c f8 ed 37 3e b7 56 32 3e 7c b5 56 3e
       0.025445743 0.17961872 0.17415892 0.20967668
000390 b5 1e 59 3b a9 6f a8 bd d8 67 80 3d 3e 8b 2f 3e
       0.0033129875 -0.082244225 0.062698066 0.1714296
0003a0 36 91 ff 3d 10 01 8d 3e 76 b2 1a 3e 64 db 73 3d
       0.12478869 0.27539873 0.1510714 0.0595354
0003b0 db b8 24 3e fe ad 43 bc ea 65 4f bd fb 8b 9e 3c
       0.16086142 -0.011943338 -0.050634302 0.019353857
0003c0 03 d2 0e 3e 70 a8 e0 bb 01 6d e4 3d 0c 1a b1 bc
       0.139473 -0.006856017 0.11153603 -0.021618865
0003d0 0d ff d0 3c 2c 8e 6a 3d 03 49 d3 bc e3 6d b7 3d
       0.025512243 0.057264492 -0.02579165 0.08956506
0003e0 d7 5c d9 3d c8 f3 12 3e ac 01 f5 3c 5a 13 7d 3d
       0.10613411 0.14350808 0.029908024 0.061786033
0003f0 d5 6a d1 bb 60 53 36 bd 52 7c e2 3d 34 64 f0 bd
       -0.006390909 -0.044513106 0.110588685 -0.11737862

lstm.weight_hh_l0 f4 [256, 64]
000000 fe a7 6a 3c 72 eb 44 be 32 00 6c bd e4 71 b5 3b
       0.014322279 -0.1923044 -0.057617374 0.0055372585
000010 2a 37 05 3e 39 50 8e 3d b2 92 03 3e 40 b5 59 3e
       0.13009325 0.06948895 0.12848929 0.21260548
000020 fd 1d 27 be 0a e1 6e 3d 5d 2c 40 be 59 c8 05 be
       -0.16320033 0.058320083 -0.18766923 -0.13064708
000030 3d 34 4e be 0d 46 53 3d 0c b2 68 3e 26 63 3a bd
       -0.20137115 0.051580478 0.2272417 -0.04550471
000040 d2 50 e5 bc 82 40 1f 3e 16 4f 5c bd 7a 5c 12 3e
       -0.02799264 0.15551952 -0.05378636 0.1429309
000050 d2 d0 87 ba fc b3 a9 3d 3c 39 3c 3e 9e af c1 bd
       -0.0010361916 0.082862824 0.18381208 -0.094573244
000060 0d 78 36 be 39 af 3d bd 57 f8 85 bc 07 9c 9d bd
       -0.17819233 -0.046309683 -0.01635377 -0.076957755
000070 09 d9 8c bd a7 b8 3a be c6 c0 91 bb 7a 99 55 3e
       -0.06877334 -0.18234502 -0.004448029 0.20859328
000080 dc 1e 2d bb 73 19 9b 3e b7 1b 57 bd 5d d6 26 3c
       -0.0026416099 0.30292854 -0.052516665 0.010182944
000090 0d 06 d2 bc 2e 06 92 be a4 c6 11 3e 24 81 a3 3d
       -0.02563765 -0.2852034 0.14235932 0.07983616
0000a0 a7 66 8b 3c 78 ad d4 3d ee 73 94 be 13 fc 1c be
       0.017016722 0.10384649 -0.28994697 -0.15330534
0000b0 ba 4b 47 3d 4c 3c fe 3c 19 9a c6 3d 22 2b d9 3d
       0.048656203 0.031034611 0.096973605 0.1060393
0000c0 89 39 27 3e 21 a0 b9 3c 3e 6e 60 bd 16 1a 4a be
       0.16330542 0.022659363 -0.054792635 -0.19736513
0000d0 1c a8 06 3e b8 21 3b bd be 7f ef 3d c1 8c 89 bd
       0.13150066 -0.045686454 0.11694287 -0.067163
0000e0 be 76 14 3d 11 4e 3a 3e 62 90 fa 3d be 5d 1b 3c
       0.036246054 0.18193842 0.1223457 0.009482799
0000f0 7c 51 f2 3d 4d 65 fb 3c 6f 66 64 bd d8 91 22 be
       0.11831948 0.030687952 -0.05576175 -0.15875947
000100 88 b8 ad bb 67 70 c8 3d 7c 22 40 3c 1f 10 d0 bc
       -0.005301539 0.09787064 0.011726972 -0.025398312
000110 90 f0 78 be e6 d2 37 be ad b7 69 3d 33 3e 26 bc
       -0.24310517 -0.17951545 0.057059933 -0.010146665
000120 ee f1 a6 bc b7 28 fa 3d 7d 41 1d be 77 7a 90 bc
       -0.020379033 0.12214797 -0.15357013 -0.01763652
000130 37 b0 bc bd 56 0a 66 3d a3 d6 52 3e 8c 34 84 3d
       -0.09213298 0.0561622 0.2058969 0.06455335
000140 13 c7 b5 3d 90 83 6e bc f4 63 6d bb 67 2a d4 3c
       0.08875861 -0.014557734 -0.0036222907 0.025899125
000150 41 6a 42 3e 1b 7c 35 3d b4 04 9e 3e 8d 07 ad bd
       0.18985845 0.04430781 0.30862963 -0.08448706
000160 b4 57 3e be 21 76 8a bd 50 2d 14 3e 17 02 24 bd
       -0.18588144 -0.067608126 0.1447041 -0.040041056
000170 57 5e 50 3d 71 17 34 bd 5a 34 f2 3c b7 67 03 3d
       0.05087122 -0.043967668 0.029565979 0.032081332
000180 ed 7f 45 bd 66 45 42 3e 64 99 b6 3c a7 be 9d 3c
       -0.048217703 0.18971786 0.02228994 0.01925595
000190 ec f5 4e 3e 41 15 e1 bd 4a ab c6 3d 05 86 c9 3d
       0.20210999 -0.10990382 0.097006395 0.09840015
0001a0 55 a8 15 bd 70 91 7d 3d 09 00 4b be 5b b2 5b 3d
       -0.036537487 0.061906278 -0.19824232 0.05363689
0001b0 fb af d8 3c 1d a0 ab 3d f5 f6 68 bd cb 19 89 bb
       0.026451102 0.083801486 -0.05687614 -0.004183983
0001c0 ee 5c 43 3b 79 59 f7 bc cb 01 9f bc 34 da 35 3d
       0.002981003 -0.030194031 -0.019410035 0.044397548
0001d0 b7 af 4b 3d b7 a1 29 be 68 b5 a1 3d 71 6d e2 3c
       0.04972812 -0.16565596 0.078959286 0.027640076
0001e0 c7 4a c6 3c 37 6b 32 3e fc a1 46 3c 6a e8 31 3d
       0.024205578 0.17423712 0.012123581 0.043434538
0001f0 5f ab 74 3e 8d b5 96 3d 83 72 04 be 67 be 97 3c
       0.23893498 0.07358847 -0.12934308 0.018523408
000200 dc a0 f1 bd 80 97 c7 3d 8e 99 70 3d 3c 96 2d 3c
       -0.117982596 0.09745693 0.05874019 0.010594901
000210 5e b2 cf bc f9 42 fa 3d 1a d2 a6 3d 48 55 58 3c
       -0.025353607 0.12219805 0.081455424 0.013203926
000220 2d 25 17 be 35 0c 43 3d 55 1f b7 bd 55 d5 cf 3c
       -0.14760275 0.047619063 -0.08941523 0.02537028
000230 c4 c4 c0 3a c4 0f 4b 3d 9b ee 04 3e be 29 20 3b
       0.0014707078 0.049575582 0.12981646 0.0024438943
000240 47 a6 0a bd 94 30 32 3e 60 5b 6e 3c 89 20 d1 3c
       -0.03384998 0.17401344 0.014548153 0.02552821
000250 a3 92 de 3d 45 a6 18 bd af 44 58 3e 14 9a 0f be
       0.108678125 -0.037267942 0.2111995 -0.1402362
000260 a4 c7 43 3d a5 15 1e bd b1 1f 52 3e 70 5f 6c 3c
       0.047797814 -0.03859486 0.20519902 0.014427051
000270 8b 96 23 be fc b8 a0 bc 2a 1c f8 bd a5 38 89 3d
       -0.15975396 -0.019619457 -0.12114747 0.06700257
000280 f3 07 17 3d c7 77 8a 3d 75 0d d0 3d 1c 50 33 bd
       0.036872815 0.06761127 0.10158817 -0.04377757
000290 a1 10 bb 3d 61 be 39 be 57 47 03 3e b8 dd ee 3d
       0.09134031 -0.1813903 0.12820183 0.11663383
0002a0 80 87 d3 bd dc 64 2f bc c2 b2 4b bd af dd 0c 3c
       -0.10328579 -0.010705199 -0.049731024 0.008597775
0002b0 6d 36 00 be 69 47 31 3e 0e f6 90 3d c6 ab 9c 3d
       -0.12520762 0.17312397 0.07078181 0.07649951
0002c0 5d 9d 1b bd d6 5a 44 bd f1 52 f3 bd 42 a9 17 be
       -0.03799187 -0.04793819 -0.11881054 -0.1481066
0002d0 32 87 8b 3c e5 c5 00 be c5 9a 02 3e d0 91 f0 bc
       0.01703224 -0.12575491 0.12754352 -0.029366404
0002e0 10 66 77 3d 71 1f 87 3c b8 61 46 bd 86 36 07 3e
       0.06040007 0.016494485 -0.048433036 0.13204393
0002f0 33 27 c0 3d 1b 71 e1 3c 4c d2 27 bc 63 78 3c 3c
       0.09382477 0.027519753 -0.01024301 0.011503312
000300 5b 0f 0d bc 97 6b d5 bd 47 b7 13 3e b4 76 65 bd
       -0.008609618 -0.10420912 0.14425384 -0.056021407
000310 d7 fb 80 3c 67 0c 12 be e4 d3 0c bc 4e a5 06 bd
       0.015745087 -0.14262544 -0.008595441 -0.03287249
000320 5e cc 95 bd 2a b8 09 bd ff ab 09 be b1 b1 f0 bd
       -0.073143706 -0.0336229 -0.13444518 -0.11752642
000330 88 45 be bc e0 f0 cb bd db 67 60 bd f3 c4 2b 3d
       -0.023226514 -0.09958053 -0.054786544 0.041935872
000340 6e 95 7c bd 65 d3 b0 3a 62 99 48 bd 7b 40 c5 bc
       -0.061665945 0.0013490735 -0.048974402 -0.024078598
000350 23 fe 5e 3d 09 11 ff 3d 78 0e 5f 3d 30 cb ea 3d
       0.054441582 0.12454421 0.054457158 0.11464536
000360 40 dd cc bd 8d 3f 21 be f6 34 18 3c 89 46 0e 3d
       -0.100031376 -0.15746899 0.009289971 0.034735236
000370 ec 11 93 3d 09 b8 a3 bd b3 23 0b be b6 18 0b 3d
       0.07181153 -0.07994086 -0.13587837 0.033959113
000380 02 8b c0 3c 7d 61 8f bd 38 d4 a5 bd a0 24 0e bd
       0.023503784 -0.07001016 -0.08097118 -0.034702897
000390 e4 72 32 bd f9 74 3c 3d 9f 76 01 bc 9d 54 29 be
       -0.0435666 0.04600999 -0.007901817 -0.16536184
0003a0 fe 7c f7 bc f5 31 d8 bd ab cd 0f be 59 c1 9a bd
       -0.030210968 -0.105564035 -0.140433 -0.075564094
0003b0 23 ff 40 be f8 0f 11 3d ce 0f 24 3d 4d 1f e5 3c
       -0.18847327 0.03541562 0.040054135 0.027969027
0003c0 a3 09 4f 3d ae 06 90 3b 4f 3d eb 3d 38 46 81 bd
       0.0505463 0.0043953275 0.11486303 -0.06312221
0003d0 b3 8d e0 3d e2 e5 87 3c 5a 73 96 3c 90 26 a4 bd
       0.10964527 0.016589109 0.01836555 -0.08015168
0003e0 36 30 f6 bd 6c 77 f0 3b 08 78 a7 3d e5 0e e6 3d
       -0.12020914 0.007338455 0.08177191 0.1123331
0003f0 5a b1 cd bd 8e 8f fe 3d 6a f5 0b 3e cd af 12 3d
       -0.10043593 0.12429725 0.13667837 0.035812188

lstm.bias_ih_l0 f4 [256]
000000 a1 23 a2 bc 55 b1 86 3d 80 02 e5 3d ba ac 8d 3c
       -0.01979238 0.06576792 0.111821175 0.017294277
000010 5b 5d 1a 3e 09 d7 3a bc ce 66 9e bd 53 a3 1a bc
       0.15074675 -0.011403807 -0.07734452 -0.009438354
000020 b1 f0 d9 bb de 5b a4 bb 93 4b bf bd d4 99 6a 3d
       -0.006651007 -0.0050158342 -0.093405865 0.05727561
000030 db f3 c1 3c 54 e7 7f bd ec b6 f0 3d d2 19 0b 3e
       0.02367585 -0.06247647 0.117536396 0.13584068
000040 61 d6 ad bc 2d 8d 4d 3e 99 ce 4e 3d 08 a8 92 3d
       -0.021220388 0.20073386 0.050489996 0.07160956
000050 2e a3 7f 3d 30 5d 39 3d 27 e8 13 3d 2e 12 43 3e
       0.06241148 0.045254886 0.03611007 0.19049904
000060 61 b1 03 be ed 49 ad 3d e2 61 18 3c eb d7 eb 3d
       -0.12860633 0.08461366 0.009300681 0.115157925
000070 e6 c1 8e bc 58 bf d1 3d 85 aa 37 3e 94 ce 50 3e
       -0.017426442 0.10241574 0.17936142 0.20391303
000080 39 1b b2 3d b2 08 0b 3e 21 04 2f bd bd 66 74 bd
       0.086965986 0.13577536 -0.042728547 -0.05966829
000090 67 82 6d 3c ff 82 c9 bc f2 2e 5b bc af ee 8c bc
       0.014496422 -0.024598597 -0.013377892 -0.017203657
0000a0 fe 36 f6 bd 99 63 21 be 91 06 ea 3d ca b9 d0 3d
       -0.12022208 -0.1576065 0.11427034 0.101916865
0000b0 fc 70 1a 3d 69 75 12 3e 17 91 f8 bc d6 dc 8d bc
       0.037705407 0.14302601 -0.030342622 -0.017317217
0000c0 55 56 85 bd 7e c9 f4 3d 5c 9f a4 bc bc 8c 16 bc
       -0.06510607 0.11952494 -0.02009552 -0.009188827
0000d0 36 2f c6 bd 64 0e 29 3e bb 8a b2 bd 4d 25 2a 3d
       -0.096769735 0.16509396 -0.08717867 0.04153948
0000e0 29 8d 8f bd c1 ae 5c 3c 16 2c eb 3d 58 36 09 3e
       -0.07009346 0.013469399 0.11483018 0.13399637
0000f0 4a e2 07 3e 20 bf 3b 3e 58 d5 c8 3d 35 f5 0f 3e
       0.13269916 0.18334627 0.09806317 0.14058383
000100 e4 ba 0d 3d d3 7d 84 bd cf d9 09 bd e6 30 73 bd
       0.03460206 -0.064693116 -0.033654984 -0.059372805
000110 f8 84 38 3c f0 49 35 3d 7d 0b cc 3c 12 81 92 bc
       0.011262171 0.044259965 0.024907822 -0.017883811
000120 cc 3d d5 bc ed 2c 21 3d d9 c8 02 bd 13 69 2f 3e
       -0.026030444 0.039349485 -0.031929825 0.17129926
000130 31 7c 19 3b 68 63 5e bd af 64 e9 3d bd d2 99 bd
       0.002341997 -0.05429402 0.11396157 -0.07510898
000140 63 5b f5 bd 9f 1b 43 bd 8d 1b 2e 3c 64 14 81 3d
       -0.11980321 -0.047633763 0.010626686 0.06302717
000150 94 29 c7 bc dc 84 31 bd 23 73 94 3c 66 d7 23 3e
       -0.024311818 -0.043339595 0.018121308 0.16000137
000160 36 d0 00 be 13 83 35 bd 97 48 22 bd eb 90 ff 3d
       -0.12579426 -0.044314455 -0.03962001 0.12478813
000170 93 06 d8 3c 24 31 ce 3c df 84 4f bd fa 3e 0a 3c
       0.026370322 0.025169916 -0.050663825 0.008437866
000180 cb 94 c7 bd c3 de fd bd f7 cb 22 3d b2 b9 49 bd
       -0.09745177 -0.12396004 0.039745297 -0.04924936
000190 87 15 28 be 86 4d cf 3d a7 97 51 bd 47 6e 9e 3d
       -0.16414462 0.10122208 -0.051170018 0.077358775
0001a0 ce b7 9c 3d 46 31 ed 3d ce 2f 06 3c a5 7d 0f 3e
       0.076522455 0.11581664 0.008190108 0.14012773
0001b0 87 9c 79 3d 58 28 a6 bd 5a 11 84 bd 4d 62 20 ba
       0.06094029 -0.08113164 -0.06448622 -0.00061181636
0001c0 d4 85 75 3d 31 4c 2d 3c de af c9 bd a3 bb 3d 3d
       0.05994208 0.0105772475 -0.09847997 0.046321522
0001d0 cb 2c 9d 3d 59 03 24 3d 55 31 27 3e ab 7a 23 3d
       0.07674559 0.040042255 0.16327412 0.039911907
0001e0 ec 6e 71 38 43 59 9b bd 91 df f7 3d b7 8d a7 bd
       5.756218e-05 -0.07585385 0.12103189 -0.08181327
0001f0 52 50 e7 bd 69 95 4f bd 07 8b 0e bd 84 2e 0b bd
       -0.11294617 -0.050679598 -0.034800556 -0.033979908
000200 96 67 6f 3d 15 60 94 3d 74 6a 4d 3c 43 f6 83 bd
       0.058448397 0.07244889 0.012537587 -0.06443455
000210 f8 fb 3a bd f0 ad 90 3d 60 4e 86 3d 22 73 82 be
       -0.045650452 0.07064426 0.065579176 -0.25478464
000220 e8 53 97 bd c4 d3 81 3c 07 0f 9f bd 8b 12 99 bd
       -0.07389051 0.015848048 -0.07766538 -0.0747424
000230 44 6e 06 3e 28 7a ba bd ac 7b a8 be ae 72 00 3e
       0.13128 -0.09105331 -0.32906854 0.12543747
000240 d2 e5 ff bd 33 c0 c2 bd a4 ae c5 3d 32 a1 0c be
       -0.124950066 -0.09509315 0.09652451 -0.13733366
000250 41 88 12 3e 28 d9 2a 37 e8 23 ac bd 26 6d a4 3d
       0.14309789 1.018335e-05 -0.08405286 0.08028631
000260 b1 7d 0f be e3 7a 11 be cd ea 9f 3d d5 7c 8a 3e
       -0.14012791 -0.14207034 0.078084566 0.27048364
000270 97 18 80 bd a7 56 33 3e a0 ef 0f bf bd 14 cf 3e
       -0.0625469 0.17513524 -0.56225014 0.4044551
000280 89 8a 05 be b9 fc 0d bd dc 30 ed bd 98 18 f1 3d
       -0.13041128 -0.034664843 -0.11581585 0.11772269
000290 bc 82 11 3d f7 68 2d 3d f4 d3 ba 3d 34 62 37 be
       0.03552507 0.04233643 0.09122458 -0.17908555
0002a0 11 90 5d be 18 9e 7c 3d 99 8a a0 3d c4 0a 8c 3d
       -0.21636988 0.061674207 0.078389354 0.06837991
0002b0 c1 8b 86 bd 70 e3 c7 bc f8 f8 52 3e 27 67 16 3d
       -0.06569625 -0.024400443 0.20602787 0.036719467
0002c0 08 81 bb 3d 0b 85 fa 3d d1 0f d0 bc aa 3d b3 bd
       0.0915547 0.12232407 -0.025398167 -0.08751996
0002d0 f5 9d ab 3d 55 86 ba be 4c e7 cf bc 43 89 23 3d
       0.08379737 -0.36430612 -0.025378846 0.039925825
0002e0 b2 db e3 bd 7e 3f 55 3d 5e 6c da bd 17 85 00 3e
       -0.11125888 0.052062504 -0.10665201 0.1255077
0002f0 3e a5 f8 bd 0f 27 ca bd f6 fc ac b9 0c d6 62 3e
       -0.121408924 -0.09870731 -0.00032994867 0.22151965
000300 34 2d 9b 3d 46 ce 53 bc 99 86 41 3e 8d 09 e2 3d
       0.07576981 -0.012927597 0.18899001 0.11036978
000310 74 7d d0 3d a6 17 2a bd 09 09 ed 3b 06 9a e1 3d
       0.10180178 -0.04152646 0.007233743 0.11015706
000320 80 20 a3 3d 85 9c 77 bc d4 76 77 bc cd 81 4b 3e
       0.07965183 -0.015113001 -0.015104014 0.19873734
000330 3b fb d0 3d 67 4b a7 bc 36 76 08 3e 6a f4 44 3e
       0.102041684 -0.020421697 0.13326344 0.19233862
000340 5b e8 b7 3d 63 17 38 3c 63 9b ca 3d bf c6 36 3e
       0.08979865 0.011236045 0.09892919 0.17849253
000350 17 f7 76 3e 3c 52 8b bb d2 bd 9d 3d 50 06 8d 3e
       0.24117695 -0.0042517465 0.07702221 0.2754388
000360 6f 2f 99 bd d6 73 bb bd 2a c6 1f 3e c1 84 a3 3d
       -0.0747975 -0.09152953 0.15602937 0.07984305
000370 e8 2a 9e 3d 17 85 a5 bc 55 e1 07 3e 7d 9a a5 3c
       0.077230275 -0.020205064 0.13269551 0.020215267
000380 a8 f5 b5 bc 6d f6 d6 3d c7 ba a6 3c f0 d1 a0 bd
       -0.022211865 0.10496221 0.020352734 -0.078525424
000390 6a 44 88 3d e5 35 cd 3d 6e 34 d1 bc 1e cb d6 bc
       0.06653674 0.10020045 -0.025537696 -0.0262199
0003a0 6c aa b6 3d e3 6c 9a bc be 3a fe 3c 34 60 80 3d
       0.08919224 -0.01885075 0.03103387 0.06268349
0003b0 1b 01 11 3e 7b 76 a8 3c 3c 1a 4d 3d 56 f1 03 3e
       0.14160578 0.020564308 0.050073847 0.12885031
0003c0 b4 47 fa bc 36 11 d8 3c 56 03 55 3e d7 6c 2d 3d
       -0.030551769 0.026375394 0.20802054 0.042340126
0003d0 64 df 09 3e 2b ee dc bd 96 79 50 bc 70 f5 f5 bd
       0.13464123 -0.107876144 -0.012724301 -0.12009704
0003e0 13 40 9a bb 9d 29 09 3e 85 15 2d 3b cd 68 6a bc
       -0.0047073453 0.1339478 0.0026410532 -0.014307213
0003f0 1f 17 d1 3d bf 17 12 3e 09 27 18 bd d6 c5 dc bb
       0.10209488 0.14266871 -0.0371466 -0.006737451

lstm.bias_hh_l0 f4 [256]
000000 a7 51 da bc 58 90 41 3e e7 d8 4a 3d 8e f8 3d bd
       -0.026650263 0.18902719 0.04952326 -0.04637962
000010 53 4f 3b 3e 29 42 1d 3e 04 db 81 3d 25 86 00 bd
       0.18291979 0.1535727 0.06340602 -0.03137793
000020 8c c9 d4 3d a5 49 1e 3e 7b 31 cf bd 0a 44 a3 bc
       0.103900045 0.1545778 -0.101168595 -0.019929904
000030 6d 6d 0c 3e 47 14 37 3d 45 b5 63 3e ff 9e 51 3d
       0.13713618 0.044697072 0.22237118 0.05117702
000040 b3 47 a2 bd d3 b8 06 3e 36 bf ed 3d 6d 4f 6b 3e
       -0.07923832 0.13156442 0.11608736 0.22979517
000050 05 b7 1c 3e 7a fd 27 3e 62 d7 30 3e 3c 0b e4 3d
       0.15304191 0.16405287 0.17269662 0.11134955
000060 8d e0 6b 3d a2 69 10 3e 8a 0b ea 3c 71 a0 64 3d
       0.057587195 0.14102796 0.028569955 0.05581707
000070 cc f2 03 bd b3 aa ba 3d 6e 23 2f 3e 8e e3 fc 3c
       -0.03221397 0.091145895 0.17103359 0.030870225
000080 b0 31 09 bd a4 fc 3d 3d bd ca e4 3d b0 aa 10 3c
       -0.03349465 0.046383515 0.11171482 0.008829758
000090 f8 ab bd bd dd ae 93 3d 23 58 b5 bd 71 2f 13 3e
       -0.09261316 0.07211087 -0.08854701 0.14373566
0000a0 43 3f 37 3d c3 02 18 be 91 7e e0 bb c5 82 24 3d
       0.044738065 -0.14844804 -0.0068510254 0.040163774
0000b0 dd 06 10 3e 4b 97 ff 3d d5 55 24 bd 10 1e ce bd
       0.14065118 0.12480029 -0.04012092 -0.10064328
0000c0 f1 9c cd 3c 77 06 48 bd c3 a3 b0 bc 2d 9d dd bd
       0.02509925 -0.04883429 -0.021562463 -0.108209945
0000d0 dd 66 83 bd 1d 6c 62 bd 9b f0 11 3b 3b 4a 09 bc
       -0.06416104 -0.055278886 0.0022268656 -0.008379514
0000e0 20 1f ff 3d 68 a5 84 3d 74 e6 0c 3a 61 25 86 3d
       0.124571085 0.06476861 0.00053749164 0.06550098
0000f0 03 1e 35 3e 42 b0 ae 3d 0e 3d a2 3d c8 7a b7 3d
       0.1768723 0.08529712 0.079218015 0.089589655
000100 20 b9 d0 bc b7 1b 0a be 19 97 c8 bd 08 b2 a3 bd
       -0.0254789 -0.13487135 -0.097944446 -0.07992941
000110 6d 70 89 bd 6a c1 8a 3d d9 e4 3d bc f7 2f ee bc
       -0.06710897 0.06775172 -0.011590206 -0.029075606
000120 de 7d e3 3c 6a a7 be bc b4 94 0e 3e 95 9e 23 3e
       0.02776998 -0.023273189 0.13923913 0.15978463
000130 59 dd 31 3e e4 f3 6d bd b8 ce ac 3d c0 8c 92 bd
       0.17369594 -0.05809392 0.08437866 -0.07155752
000140 d8 ff 65 bd c3 86 09 be f3 04 b1 3d b0 9b aa 3d
       -0.056152195 -0.13430314 0.08643522 0.08330476
000150 bd 01 ab bd 1d 06 e0 bc 01 63 01 3d 05 04 1a 3e
       -0.08349941 -0.027346665 0.031588558 0.15040596
000160 62 55 1e 3d b1 dd 37 bd b3 b7 09 bd 5d f8 00 bd
       0.038655646 -0.044889156 -0.033622455 -0.031486858
000170 8a 33 dd ba 8e 0c dd bc 64 43 ad 3c 32 0e e8 3d
       -0.0016876322 -0.026983526 0.021150298 0.113308325
000180 8d 3b 1d 3d 74 99 05 bd 37 99 e4 3d 1c 33 1d be
       0.03838687 -0.032617047 0.11162036 -0.15351528
000190 cc d0 9e 3d d9 6d 43 3d 4f ec 5b bd 32 bc d7 bd
       0.077546686 0.04771218 -0.05369216 -0.10533942
0001a0 50 21 d6 bd 55 ae 6a 3d dd 27 03 be 86 4d b4 bd
       -0.104555726 0.057295162 -0.12808175 -0.08803849
0001b0 c6 66 09 bc 25 70 21 bc 51 05 33 3d ad 8d c8 3d
       -0.0083863195 -0.0098533975 0.043706242 0.097926475
0001c0 00 e8 f2 bd 0d a2 37 bd 4f 1b 22 be fc 16 01 3e
       -0.11860657 -0.044832278 -0.1583073 0.12606424
0001d0 b7 67 b4 3d eb ce 77 bb 0a 0d e6 3d 8c dc eb 3d
       0.088088445 -0.0037812542 0.11232956 0.11516675
0001e0 5e fc d6 3b 62 e2 9b bd 92 d0 de 3d 87 28 00 bd
       0.006560846 -0.076115385 0.108796254 -0.03128865
0001f0 92 7d a2 3d ce 50 a9 bd 2d e3 c8 bd 73 ff 7e 3d
       0.07934107 -0.082673654 -0.09808955 0.062255334
000200 d6 31 85 bd 3f 6c fa bc 8b c2 11 3e 5e 3b 76 bd
       -0.06503646 -0.030569194 0.14234369 -0.06011521
000210 c7 d2 44 bd 03 72 b5 bd 7a 83 58 bd 9e a9 86 be
       -0.048052575 -0.08859637 -0.05285976 -0.26301283
000220 2f 04 68 3d f7 4d 4e 3c 0e 3a 84 bd 34 40 fa 3d
       0.056644615 0.01259183 -0.064563856 0.12219277
000230 76 32 a4 3d c8 3a bf bd f2 e9 80 be 3f 7b cb 3c
       0.08017437 -0.093373835 -0.25178486 0.024839042
000240 43 52 12 be 50 db b3 3d 98 4c 19 3d 3b dd 14 bd
       -0.14289193 0.08782065 0.03742656 -0.036343794
000250 76 f5 d6 3d 8a 64 b5 3d ad 20 ca 3d ab 10 cc 3d
       0.10496037 0.08857067 0.09869514 0.09964117
000260 8f 9d 25 3d 5b 54 18 be 20 1c ee bd 67 18 58 3e
       0.040433463 -0.14875929 -0.11626458 0.21103059
000270 15 6b 8d 3d e5 8e 0f bb 82 e2 02 bf d9 11 c6 3e
       0.0690519 -0.002190524 -0.51126873 0.38685492
000280 3b 48 7f bb 11 25 c6 3d 6b 63 08 3d c0 f5 ad bd
       -0.0038952965 0.096750386 0.033297937 -0.08494139
000290 cb b3 7b bc a4 51 21 3e 5e d4 92 3b b1 30 d6 bc
       -0.01536269 0.157538 0.0044808825 -0.026146265
0002a0 08 e8 cc bd db c7 78 3d 97 a1 d8 3a 77 97 64 bd
       -0.10005194 0.060737472 0.001652765 -0.05580851
0002b0 81 0e 72 bd 32 51 05 3e 20 05 c2 3d f4 39 78 3d
       -0.059095863 0.13019255 0.09473634 0.060602143
0002c0 7f 69 a8 3e 07 cb a3 3a 22 0c 15 3d d7 e4 a8 bd
       0.32892987 0.001249642 0.036388524 -0.08246773
0002d0 80 69 83 3e cb ad b1 be 52 f9 9e 3d 91 7d 9d 3d
       0.25666428 -0.34702906 0.07762398 0.076899655
0002e0 ba d3 01 be 6f 33 b5 3d 17 c7 36 bd 5e 49 86 3d
       -0.12678424 0.08847701 -0.04462346 0.065569624
0002f0 77 0d 9b 3d c5 8c bb bc e9 18 19 bd 85 31 0f 3e
       0.075709276 -0.022894273 -0.03737727 0.13983734
000300 ac 6f 1f 3d a8 98 2c 3c aa 8b e7 3d 84 42 ec bc
       0.038924858 0.010534443 0.11305936 -0.02884031
000310 9a 69 2a 3e e0 12 36 3e 5d 52 9c 3d d6 cf ba bc
       0.16641846 0.17780638 0.07632897 -0.022804182
000320 57 a6 6c 3d 9c 06 20 3c a1 3f 10 3e 83 2c 59 bc
       0.05777582 0.009767201 0.14086773 -0.013255241
000330 2b 3f 23 bd 67 2b d7 3d 72 2b 19 3e 4a 17 46 bc
       -0.039855164 0.10506325 0.1495798 -0.0120905135
000340 b7 d5 a2 3d 96 92 a4 3d be e8 80 bd 68 8c 96 3d
       0.07950919 0.080357715 -0.06294392 0.07350999
000350 17 40 c3 3d ff 65 45 3d 94 ee 7c 3d d5 d8 89 3d
       0.095337085 0.048192974 0.061750963 0.067308106
000360 12 b8 02 bc 44 9f 18 3e 2c 0e 53 3e f6 8d 1d 3e
       -0.007978456 0.14904505 0.20610875 0.15386185
000370 82 d1 a4 3d 87 fc 3c 3c b0 5c 93 3c d2 6b 05 3e
       0.08047773 0.011534817 0.017988533 0.13029411
000380 a4 8c 89 3d 35 62 a9 bc 12 a4 c5 3d aa 16 06 3e
       0.06716278 -0.020676712 0.096504346 0.13094583
000390 ed e2 9d 3d 15 4b 23 3c c4 cd 54 3d 30 f5 de 3c
       0.07709298 0.009966631 0.051954046 0.027216524
0003a0 cb c6 77 bc 17 0f 58 3d 8f 14 4a 3d eb 22 c6 3c
       -0.0151230795 0.052748766 0.049336012 0.024186572
0003b0 6c 3e 9f 3d 9f be d1 3d ed d4 da bd c9 b7 dc 3d
       0.07775578 0.10241436 -0.106851436 0.10777242
0003c0 ff c7 58 bd b1 16 c8 3d 68 ab 69 3d e9 89 e2 bd
       -0.052925106 0.09769953 0.05704823 -0.110614605
0003d0 ec 41 03 3e af 49 ad bc 66 d2 30 bd cb 52 02 bd
       0.12818116 -0.0211533 -0.0431694 -0.03181724
0003e0 1e df c4 3b 06 11 59 3d bc 16 a7 3d 7e 9b b7 3d
       0.006008043 0.05299475 0.08158633 0.08965205
0003f0 f3 0a 70 3e 3a d9 fd 3b 17 2d 5b bd 8e 9b 06 3d
       0.23441677 0.0077468427 -0.053509798 0.032863192

lstm.weight_ih_l0_reverse f4 [256, 51]
000000 68 23 52 bd f1 fd ee bd 13 e1 4c bc 02 6e 30 bd
       -0.051303297 -0.11669529 -0.012504834 -0.04307366
000010 86 0f 00 be 2c 34 a8 bd be b7 6d 3d d2 53 e8 bd
       -0.12505922 -0.08213076 0.05803656 -0.113441125
000020 5d 8d 92 bd f0 9c ae bb 08 28 96 bd 37 f6 20 3c
       -0.07155869 -0.005328767 -0.07331854 0.009824327
000030 d2 21 29 3c 58 62 77 3d 3d ca 71 3d d4 72 4a 3d
       0.010323005 0.060396522 0.05903076 0.049425915
000040 25 b9 cb 3d 0c 60 e5 bc a0 8c ad 3d b2 12 36 3d
       0.09947423 -0.0279999 0.08474088 0.044451423
000050 62 0e 00 be c9 4b 9d 3d 38 13 f3 3d 29 16 ae bc
       -0.12505487 0.076804705 0.118689 -0.021250801
000060 45 13 d5 3d 64 6c 8b 3c f0 42 7d 3d a0 89 78 bd
       0.10404066 0.017019458 0.061831415 -0.060678124
000070 99 c1 16 3c 44 42 36 bd ce 79 21 bc fb a4 0a 3d
       0.009201431 -0.04449679 -0.009855701 0.033848744
000080 d3 3c 62 3d 18 32 fe 3c 27 55 cc bd e3 15 c5 3d
       0.055233788 0.031029746 -0.09977179 0.09623315
000090 f3 bb e1 bd 5a 3e 32 bd e1 34 32 3b fe 36 a1 3d
       -0.110221766 -0.043516494 0.0027192163 0.07871817
0000a0 a9 76 56 bc 34 d7 67 bd 84 93 dc bd 73 29 a3 3d
       -0.013089814 -0.056601718 -0.10770324 0.0796689
0000b0 ce 3c 7b 3d 67 cf e8 bc d2 9b bc bd c8 5d 6a bd
       0.061337285 -0.02841921 -0.09209408 -0.057218343
0000c0 8b ab bb 3d 83 62 31 3d 5c b2 d0 bd c3 a0 87 3d
       0.091635786 0.04330684 -0.10190269 0.0662246
0000d0 ce 6c c2 bd 3c ec eb 3d 2d d2 87 bc 3d 37 aa bd
       -0.09493409 0.115196675 -0.016579712 -0.08311317
0000e0 1b f4 57 3d cb 89 23 bd 68 2e 17 bd 5f a0 01 bd
       0.05272303 -0.03992633 -0.03690949 -0.031647082
0000f0 8b c7 ff bd 54 27 23 3d 27 f4 80 3d 26 18 94 3d
       -0.12489232 0.039832428 0.06296568 0.072311684
000100 83 a5 d5 bd 2e e5 17 3d 43 e6 15 be e0 87 28 be
       -0.104319595 0.037083797 -0.14638619 -0.16458082
000110 d7 7b 1d bd a1 a0 34 3b 19 c1 64 3d d2 d0 3b 3d
       -0.03844818 0.0027561563 0.055848215 0.045853443
000120 99 0f 10 be f1 d2 a7 3d c4 21 f6 3d 72 d2 aa 3d
       -0.1406845 0.08194531 0.12018159 0.083409205
000130 14 e5 02 be 20 de 4f bd 66 db 94 bd a0 f7 c8 3d
       -0.12782699 -0.050748944 -0.072684094 0.09812856
000140 98 93 f6 3d af c4 17 bc d3 a4 d3 3d 5e 14 2f 3d
       0.1203987 -0.009263202 0.10334172 0.042744033
000150 a1 0e 63 bd 6d 7f 5c 3d 8d cc 17 bd aa 83 d1 3c
       -0.055433873 0.05383246 -0.03706031 0.025575478
000160 e0 e4 8a 3d 4a 9c 16 3e 40 ed 07 be c4 74 09 3d
       0.06781936 0.14708057 -0.13274097 0.033558622
000170 b2 ec f6 3c e7 73 10 3d e7 51 2b 3e fd 37 4f 3d
       0.030142162 0.035266783 0.16730462 0.050590504
000180 9f 27 7e 3c 6a 20 e2 bc ad d6 98 3d 05 4d 34 bd
       0.015512376 -0.027603347 0.07462821 -0.044018764
000190 cf ca 42 3e 41 b7 42 3d 96 00 c0 3c f5 58 f0 bc
       0.19022678 0.047538046 0.02343778 -0.029339293
0001a0 79 7b 62 3e 74 d0 b1 bd e3 cb 84 3d 70 73 42 3e
       0.22117414 -0.086823374 0.06484201 0.18989348
0001b0 a4 c7 04 bd 0a f4 e4 3d 7f e0 03 3e cb 0e 03 bc
       -0.032416955 0.11179359 0.12878607 -0.007999132
0001c0 86 0b 80 3d 2f 54 ee 3d 7b d4 fa bc 35 ae e4 3d
       0.06252198 0.116371505 -0.030618897 0.1116604
0001d0 2b a0 25 3e 72 8e bb bc 45 e1 b4 3d 3f 17 12 3d
       0.1617438 -0.022895072 0.08832029 0.0356667
0001e0 36 36 65 bc c8 6a 98 bd 2e 79 34 3e 19 5a 51 bd
       -0.013989976 -0.07442242 0.17624351 -0.051111314
0001f0 05 ed d4 3c 76 cc 44 3e d0 61 18 bd cc 8f 47 bd
       0.025991926 0.1921862 -0.037202656 -0.04872112
000200 95 cd 3b 3e 33 51 8c 3c f4 f1 24 bd c2 85 13 3e
       0.18340142 0.017128563 -0.040269807 0.14406493
000210 e9 72 97 3d f9 25 29 bc 85 64 20 3d d9 56 c0 bc
       0.07394964 -0.010323995 0.039158363 -0.023478912
000220 75 79 74 3d a1 d3 e6 3d 5a 4a 65 bd 03 4b 0e 3e
       0.059686143 0.11270834 -0.05597911 0.13895802
000230 f8 74 2a 3e 01 69 1a 3e 0f ce 91 bd 6d d8 36 3e
       0.16646183 0.15079118 -0.07119381 0.17855997
000240 48 69 19 3e ca 62 61 bd 44 11 75 3e 75 95 47 bd
       0.14981568 -0.055025853 0.23932368 -0.048726518
000250 7e 7d 07 3e 0a a4 0d 3e 3a 48 a6 3d aa a5 1a bd
       0.13231465 0.13832107 0.08119245 -0.037755646
000260 8d 60 2e 3e d1 63 0b 3d 3e bc fa 3d 77 d9 06 bd
       0.17029019 0.03403074 0.122429356 -0.032922234
000270 48 8a b8 3d 6f 11 9e bd 99 77 10 3d fd 04 7b bd
       0.0901075 -0.07718169 0.035270307 -0.061284054
000280 2b e6 60 3d ba 1f 82 3d 49 c3 85 3d f7 2c 61 3d
       0.054907005 0.063537076 0.06531388 0.054974522
000290 0d 6f a2 3d af ff 4f 3b e2 a2 ef bd 6b e9 dc 3b
       0.079313375 0.0031738093 -0.11700989 0.006741693
0002a0 88 f4 08 bd 01 d5 b2 bd a4 7b 12 3e 43 6e ae bd
       -0.03343633 -0.087320335 0.14304978 -0.085171245
0002b0 18 9f 76 3c a0 5c 8c 3d 0d 18 b7 bc 3a 07 ea bc
       0.015052579 0.06853604 -0.022350335 -0.028567899
0002c0 98 3d c0 3d 64 aa 07 bd dd 02 dd bd 15 81 12 3e
       0.09386748 -0.03312148 -0.10791562 0.14307053
0002d0 13 c5 2e 3b 5d 1d d4 bd 84 3f 5d bc 71 af c2 3d
       0.0026667758 -0.10357163 -0.013503913 0.09506119
0002e0 a5 f9 04 be ac 8c 83 3d b3 14 fb 3d b6 c9 bf bd
       -0.12985857 0.064233154 0.122598074 -0.09364645
0002f0 1a 41 22 3e d2 58 9e 3d ab 87 46 3d 27 a0 0b 3e
       0.15845147 0.07731785 0.048469227 0.13635312
000300 5e 71 40 bd 40 7b d4 3c 38 c2 e3 bb cb ca 0a 3e
       -0.046983115 0.025937676 -0.006950643 0.13553922
000310 a8 18 1a bc 4f 31 aa 3d 70 40 be 3d 85 8c 9f bd
       -0.009405293 0.08310186 0.09289634 -0.07790474
000320 62 7c b8 bc 83 e8 8c bd d9 ec 01 3d a8 82 27 3e
       -0.022520248 -0.068802856 0.031720016 0.16358435
000330 e3 8f 5e 3d b1 d4 8d bc 7a 81 db bc 24 6c de bd
       0.05433644 -0.017313333 -0.026795138 -0.1086047
000340 00 ef fa 3c 62 f2 21 bd 1b a5 4d bd 54 33 b1 bd
       0.030631542 -0.039537795 -0.050206285 -0.08652368
000350 11 70 bb bd 44 ba 83 3b 95 84 10 3d 4b 7c 07 bc
       -0.09152234 0.0040200073 0.03528269 -0.00826938
000360 e2 86 a0 3d a3 a3 2c bd 14 74 61 3d 40 c4 05 be
       0.07838227 -0.042148244 0.05504234 -0.13063145
000370 24 9b 9f 3d d3 d9 b8 bd e4 81 f9 3c a9 29 b0 3c
       0.077932626 -0.09025922 0.030457444 0.02150424
000380 91 83 08 bd 98 e2 b8 3d e9 e5 b3 3d 75 f7 06 be
       -0.033328597 0.09027594 0.08784086 -0.13180335
000390 47 67 c0 3d 08 17 51 3d 1c 66 31 3d cd 8a b2 b8
       0.093946986 0.051047355 0.04331027 -8.513555e-05
0003a0 02 a2 1a 3e a8 c2 22 3d 83 43 61 bb 86 7b 9a bd
       0.15100864 0.03973642 -0.0034372516 -0.075430915
0003b0 6d 57 4d 3d 7b ad eb bd 1c 38 e1 3d 42 b6 86 3c
       0.050132204 -0.11507698 0.1099703 0.01644433
0003c0 93 61 57 3d f9 4e aa 3d 26 5e ca bd cb db 5b bd
       0.05258329 0.08315844 -0.09881239 -0.053676408
0003d0 ce 6f fc 3c 64 f2 cc bd 6e e4 bc 3d e6 fe 22 3a
       0.030815031 -0.1000717 0.09223257 0.00062177924
0003e0 b9 e9 2b bd 48 86 34 bd 4d 9f 0d 3e 25 b7 11 3d
       -0.041970942 -0.044073373 0.138303 0.03557505
0003f0 46 2d 8a 3d 74 6f 0f 3e a0 3a ff 3c 8a 1d c6 3d
       0.067469165 0.1400736 0.031155884 0.09673603

lstm.weight_hh_l0_reverse f4 [256, 64]
000000 ec a3 e4 bd 7e a4 ea 3c be 22 7f bd 3d f2 c9 3b
       -0.11164078 0.02864289 -0.062288992 0.0061629103
000010 ae 78 b7 3b 2e d3 37 3c f1 32 1a be 96 27 60 3d
       0.005599103 0.011219783 -0.15058495 0.054725252
000020 1d 31 3f 3c 9e ef bb 3d 4b 74 9f 3c 80 be 0d be
       0.011669424 0.09176563 0.019464632 -0.13842201
000030 72 e5 8e bd 26 41 b1 bd 15 c5 23 bc 22 94 39 3d
       -0.06977357 -0.08655004 -0.0099957185 0.045307286
000040 ab 0a a0 3d da aa 8e bd 9e 7c 4f bd 70 fa 83 3d
       0.07814535 -0.06966181 -0.050655954 0.064442515
000050 33 d2 e4 3c 6b 6d 9f bd 80 a2 10 bc bf d2 05 3e
       0.027932262 -0.07784542 -0.0088278055 0.13068675
000060 65 00 b3 3d ac ce 63 3b 30 73 45 3e 8b cd 7a 3d
       0.087403096 0.0034760637 0.19282222 0.061231177
000070 6e 74 b0 bd ce 6f 31 bd 83 fb be 3d aa dd a5 3d
       -0.08615957 -0.043319516 0.09325316 0.0809892
000080 e6 18 bb bd d0 69 94 3d fc db b4 bd e5 ed 04 3d
       -0.091356084 0.07246745 -0.08831021 0.032453436
000090 96 83 bc 3c 0b b6 af bd f3 a0 82 bd c7 48 04 3e
       0.023011964 -0.08579644 -0.06378355 0.12918387
0000a0 77 63 8f 3d 5d 16 d4 3d 57 8e cd bc e8 03 67 3d
       0.07001393 0.10355828 -0.025092287 0.05640021
0000b0 77 38 81 bd bb 88 75 bd a6 b5 84 3d b8 45 11 3d
       -0.06309598 -0.05994485 0.06479959 0.03546688
0000c0 20 d2 c9 bd 5c e6 9c 3d 57 c8 db 3d 6e 31 20 bd
       -0.09854531 0.07661125 0.10731571 -0.03910964
0000d0 12 81 e6 3d c2 6d 83 bd 79 49 9f 3d 5e ad 90 3c
       0.11255087 -0.06417419 0.07777686 0.017660793
0000e0 a6 c7 e0 bd db a2 1b 3b 10 1c 60 bd de 2e 94 bd
       -0.1097558 0.0023748192 -0.054714262 -0.07235502
0000f0 64 13 5f bb 1f 3b 7f 3d 62 4c d4 3d f8 ad ba bd
       -0.0034038657 0.06231224 0.10366131 -0.09115213
000100 e1 91 f4 bd 18 19 06 bd 8d 50 1d 3e 02 f1 f1 3c
       -0.11941887 -0.032738775 0.15362759 0.029533867
000110 83 b3 32 3d a4 2c 33 bd d9 dc 28 be 92 20 89 3d
       0.043628227 -0.043743744 -0.16490497 0.066956654
000120 6b 01 10 3e 59 c9 09 3d 60 a1 66 bd e3 b6 ef bd
       0.14063041 0.033639286 -0.056306243 -0.11704805
000130 35 29 f4 bd b8 11 4c 38 49 25 07 bc b1 24 4e 3d
       -0.11921922 4.8653892e-05 -0.008248636 0.05032796
000140 25 6d 2a 3e d6 03 8f 3d 3f dd d0 3c 48 47 1d bd
       0.16643198 0.069831535 0.025496123 -0.038398057
000150 d1 a3 c2 3a 08 7b 03 3e 16 d6 86 3d e5 69 07 3e
       0.0014849846 0.12839901 0.065838024 0.1322399
000160 6c 50 40 bc fc 2b 88 3d ab de 1d bd cc 70 71 ba
       -0.011737924 0.06649014 -0.03854243 -0.00092102285
000170 4f 1b c9 bb 59 51 9a bd 6b 41 2c 3e ef 6f 91 3d
       -0.0061372886 -0.07535047 0.1682183 0.07101428
000180 e1 29 94 bd 4f ce 85 bd f6 20 15 3e 7f e0 f1 3c
       -0.0723455 -0.06533491 0.14563355 0.029525993
000190 94 c8 6b 3d 4c 6d 2b 3d 16 6e 0f 3e 7f 1a 1f 3d
       0.057564333 0.04185228 0.14006838 0.038843628
0001a0 3e c4 ca 3d 9c 1c d8 bc 81 a5 85 3b 1c a3 91 bd
       0.099007115 -0.02638083 0.0040785675 -0.07111189
0001b0 b9 be 7e bd 2a 15 60 bc d9 71 c9 bc 2f 69 85 bc
       -0.062193606 -0.013676921 -0.02459042 -0.016285507
0001c0 70 0f 82 3d de e4 d5 3d fd 5d b4 3d 68 0d 6c bd
       0.06350601 0.104440436 0.08806989 -0.057629973
0001d0 b3 d2 25 3d 46 c4 11 3d b5 d5 4c 3d 2e 50 66 bd
       0.04048414 0.03558757 0.050008494 -0.05622881
0001e0 59 81 04 3d 4d b6 aa 3c 16 38 f9 bd bb 6d af 3d
       0.032349918 0.02083888 -0.12168901 0.08565851
0001f0 af 97 09 3e e8 1d e0 3d c6 bb b2 bc 45 e7 00 be
       0.13436769 0.10943204 -0.021818053 -0.12588222
000200 7d 13 89 bd 4d dc 7d 3d 6d 2b 08 be 17 2b 8c bb
       -0.0669317 0.061977673 -0.13297816 -0.0042775976
000210 1a 40 42 bd 8c 41 61 3d 23 4e 6d 3d 25 66 d5 3c
       -0.047424413 0.05499415 0.057935845 0.026049683
000220 ef 0b 22 3e 5f 5a 5a 3d 75 40 1d 3c e6 ed 02 be
       0.15824865 0.05330884 0.009597887 -0.12786064
000230 96 f3 19 3b 6c e7 93 3c 44 d7 1c be 14 7d 5f bc
       0.0023491136 0.018054686 -0.15316492 -0.013640661
000240 24 58 3c bc c6 fa ef 3d bf f6 04 be e4 81 86 bd
       -0.011495624 0.11717753 -0.12984751 -0.065677434
000250 be 8d 3a 3d d5 d3 74 bd dd a9 75 bd b0 b1 1e bd
       0.045545332 -0.05977233 -0.059976447 -0.038743675
000260 de d1 b1 bd 98 00 68 3d 0b 25 3d 3d 52 5a 77 bd
       -0.08682607 0.05664119 0.046177905 -0.06038887
000270 f8 d9 8d be 51 dc c8 bc 1a 4f f0 bd 51 5a c6 bd
       -0.2770536 -0.024519118 -0.117338374 -0.09685195
000280 7e f7 10 be 83 88 ee bc 5e 32 a8 3c c6 86 a2 3d
       -0.14156911 -0.029117828 0.02053183 0.07935862
000290 4b 70 09 bd 1e 42 82 bc cf f9 ac bd fd 83 15 3e
       -0.033554357 -0.015900668 -0.08446085 0.14601131
0002a0 5a 47 20 3d 2a 1e db bd 06 3a 1f 3e 7a 18 23 bb
       0.039130546 -0.10699113 0.15549478 -0.0024886415
0002b0 71 32 01 3d 09 9f c8 bd 23 19 f0 bc 9a 02 ae bd
       0.031542245 -0.097959585 -0.029308861 -0.0849659
0002c0 6a 4c 25 3e 63 cf d9 bd 9f 2b 81 3e 20 a1 f9 3d
       0.16142431 -0.10635259 0.25228593 0.12188935
0002d0 ba 33 24 3e eb e6 49 3e a3 06 0f bd 3d 52 62 bd
       0.16035357 0.19716994 -0.03491844 -0.05525421
0002e0 81 82 9e 3d f8 ae b4 bd 0e 9e b9 bd e9 a1 9e 3d
       0.077397354 -0.08822435 -0.0906335 0.07745726
0002f0 f1 41 87 3e 74 30 cd 3d 76 51 bc 3a 36 db d3 bc
       0.26417497 0.10019007 0.0014367539 -0.025861364
000300 e1 cd 14 3d 9a 15 0a be bb 54 07 be 0d ee 33 3e
       0.036329154 -0.13484803 -0.13215916 0.17571278
000310 d7 a9 b9 bd f0 da 25 3d 6b 07 aa bd 2f a1 16 3d
       -0.090655975 0.040492 -0.08302196 0.03677481
000320 5a ee 7d 3d ca d7 7e 3d 57 54 f3 3c 65 dc 22 bd
       0.061994888 0.06221751 0.029703302 -0.039760966
000330 51 40 61 bc 69 c1 12 3d 86 cc 37 bc e8 df d5 3d
       -0.013748244 0.03582898 -0.011218196 0.10443097
000340 8c cd 94 bd 27 fa 72 bd 66 1d 78 3d 87 42 d1 bd
       -0.072657675 -0.059320595 0.06057491 -0.10217767
000350 90 11 db b9 ee 49 bd 3d 59 f4 11 bc 14 e4 9c bd
       -0.0004178402 0.092426166 -0.008908355 -0.0766069
000360 b0 4a a3 3c 89 e0 ca 3d 46 b2 71 bd d8 6d 40 bd
       0.019933075 0.09906108 -0.059007905 -0.046979755
000370 41 c7 50 be 54 0a 10 bd f6 64 87 3d 38 bc 33 bd
       -0.2038851 -0.0351661 0.06611054 -0.04388067
000380 d0 2c d7 3d 08 17 9d bd 34 91 00 3e 1b 29 3d bc
       0.10506594 -0.076704085 0.1255539 -0.011545445
000390 58 12 c1 bd d5 82 93 3c e9 75 1f bd 9c 74 bc 3d
       -0.09427327 0.018006722 -0.038930807 0.09201929
0003a0 cf d5 82 3d 3e 78 b7 bd 6a 3a 1d 3c 73 bb 51 bd
       0.06388437 -0.08958481 0.0095964465 -0.051204156
0003b0 41 51 8e 3d 7a 11 5e bd 77 bd ce bd 0c 60 65 bd
       0.06949092 -0.054215886 -0.10094731 -0.0559998
0003c0 e6 5f 45 bd 5d 2c 87 3d 75 3d cd 3d 7e 14 88 3d
       -0.04818716 0.066002585 0.100214876 0.066445336
0003d0 da 9b e5 bd 04 46 b1 3c 47 85 85 bd 52 14 e0 3d
       -0.11211367 0.021639831 -0.06519561 0.10941376
0003e0 5f e5 cd 3d 69 a6 4e 3d 74 e1 6c 3d 8b b0 7f bc
       0.10053515 0.05045167 0.057832196 -0.015606056
0003f0 3a b9 de 3c cc b1 9c bd a8 f3 94 bd 0d 5b 7d 3c
       0.027187932 -0.076510996 -0.07273036 0.015463603

lstm.bias_ih_l0_reverse f4 [256]
000000 02 24 b3 3b 4e 6c bd 3d b5 81 ea 3d 78 32 b5 bd
       0.005466939 0.09249173 0.11450521 -0.08847517
000010 73 c8 a9 3d 61 a0 bd 3c 46 5d f3 3d 7e 0c be bd
       0.08290186 0.023147764 0.11883025 -0.092797264
000020 4c 50 31 bd 07 bd b4 bd ab 1d 53 3d dd 24 8e bd
       -0.043289468 -0.088251166 0.051541965 -0.06940625
000030 81 e2 e6 3d 78 0b b8 bd 3a 74 b3 bb be fd 1f bb
       0.11273671 -0.089865625 -0.005476502 -0.0024412717
000040 79 40 01 3c 93 16 58 bd 89 53 88 3d 24 c0 f9 3d
       0.007888907 -0.052755903 0.06656558 0.12194851
000050 cc 9a e7 3c 7f 87 a3 3d 2b ee f8 bd 09 b6 6c 3d
       0.028272055 0.07984828 -0.12154802 0.05779079
000060 38 a1 90 bc 08 df e6 3d 37 3f 25 3d 52 5c 92 bd
       -0.017655 0.112730086 0.04034349 -0.07146515
000070 5d c1 f0 3c 63 ed c7 3c 1f f4 05 3b 88 3b d6 3d
       0.029389078 0.024405187 0.0020439697 0.104605734
000080 45 97 a6 3d 55 ab 08 3d 5d 6b 8f 3d b4 ac 00 bd
       0.08134321 0.03336652 0.070029 -0.031414703
000090 04 97 e3 bd 91 6c a7 3d 4f aa 35 3d 7f a0 e4 3d
       -0.11112788 0.08175004 0.044351872 0.11163425
0000a0 8c 8c e8 bc 82 1a 78 ba c0 22 92 bd b8 aa ef bc
       -0.02838733 -0.0009464399 -0.07135534 -0.02925621
0000b0 ea 5d be 3d 6b 72 19 bd fa 78 d1 3d b2 92 c8 3d
       0.092952564 -0.037462633 0.102281526 0.09793605
0000c0 95 8e 6b bc 78 1d aa 3d 9c 81 e2 bd 98 a3 ef 3d
       -0.014377256 0.08306402 -0.11059877 0.11701125
0000d0 ab db e8 3c e2 26 e8 bd b6 a5 1d bd a5 da f6 3d
       0.028425058 -0.11335541 -0.038488112 0.12053422
0000e0 52 cf c0 3b 73 7e 0f bd c1 64 16 3d 08 b2 71 3d
       0.0058840895 -0.0350327 0.03671718 0.059007674
0000f0 53 a4 c6 bd 32 09 ef bd 06 35 d7 bd a7 84 fc 3d
       -0.09699311 -0.11671676 -0.1050816 0.12329989
000100 ac ee 8e bd f1 73 c1 3c ce ed 8b 3d 29 9c 82 bd
       -0.06979117 0.023614855 0.06832467 -0.063774414
000110 88 32 52 3d 4a 72 6d 3d 75 05 07 3d 99 17 19 3d
       0.05131772 0.057970323 0.03296419 0.03737602
000120 d8 66 cd bd ad f8 8b bd 8e 1e 17 bd 14 bc 10 3e
       -0.100293815 -0.068345405 -0.036894374 0.14134246
000130 56 19 82 3c 6e 01 6f bb 85 59 e5 3a 53 4e 2a 3d
       0.015881222 -0.0036469358 0.0017497992 0.041578602
000140 a9 54 06 3e 42 21 d6 3c b0 61 3a 3c be cf 23 bc
       0.13118233 0.026138905 0.01137583 -0.00999826
000150 25 28 d9 3d af 03 f4 3d 0c ad 92 bd f9 0b 4e bd
       0.1060336 0.11914765 -0.07161912 -0.050304387
000160 62 43 ba 3d 9e 97 84 3d a1 fa e4 3d a8 2d aa bd
       0.090948835 0.06474231 0.11180616 -0.083094895
000170 b6 9e b4 3d c6 3a 59 3d eb 71 c2 3d 6d 25 0d 3e
       0.08819334 0.053034566 0.094943844 0.13783808
000180 a9 97 09 3b 79 07 e4 bd 8c ba 5c 39 8d 5e e5 bd
       0.0020994938 -0.11134238 0.00021050329 -0.11199675
000190 51 87 30 3d 01 31 c5 bd 8b dc 8d bd be a5 42 3d
       0.043097798 -0.096284874 -0.06926831 0.047521345
0001a0 c4 26 98 bc 53 06 9e bd 4d fd d3 3d 33 ae 24 bd
       -0.018573172 -0.0771605 0.10351048 -0.04020519
0001b0 6f 0c 58 3d 9c 6f 8d bd 5c 93 9b 3d 11 57 c3 bd
       0.052746233 -0.069060534 0.07596466 -0.09538091
0001c0 fd 94 88 3d 26 9e 02 3e 8f 74 33 3e 98 08 04 be
       0.06669042 0.12755641 0.17524932 -0.12893903
0001d0 05 eb b4 bd cd 8b e9 bd 89 d5 18 be 15 da 75 bd
       -0.08833889 -0.11403618 -0.14925207 -0.060022432
0001e0 e0 41 40 3d 72 f8 49 bd 3e 69 41 bd 26 08 c9 3c
       0.046937823 -0.0493092 -0.047219507 0.024540018
0001f0 97 1f b6 3d 68 5f fa 3c 8b 3f 6f bd 62 76 ba 3d
       0.08892744 0.030563071 -0.05841021 0.09104611
000200 8e f3 ba 3d bf 97 bf 3d 38 50 30 3d a9 35 94 3d
       0.091284856 0.09355115 0.043045253 0.07236797
000210 aa 94 a9 3d db e5 21 3d 96 b0 11 3e f9 f9 0f be
       0.082803085 0.039525848 0.14227518 -0.14060201
000220 8f 9c ab 3d f0 cb d2 bd f0 03 3f bd 35 ed 4a 3b
       0.083794706 -0.10292804 -0.046634614 0.003096414
000230 13 94 cb 3d 04 c8 64 bd a0 8d a3 3d 84 53 a6 bd
       0.09940352 -0.055854812 0.07985997 -0.08121398
000240 e0 4f b1 bd 13 a3 bb 3d a3 cf 24 3d 3c 8a 0e bd
       -0.08657813 0.09161963 0.04023708 -0.0347998
000250 86 02 d0 bd a0 5f 5e 3d c8 c0 83 bd 0a b3 54 3d
       -0.10156731 0.054290414 -0.064332545 0.051928557
000260 02 7b cc 3d 90 f0 cf bc 3b 36 dc 3b 00 22 05 be
       0.099843994 -0.025383264 0.006720332 -0.13001251
000270 4d d3 32 3d 8c e6 2f bd 75 44 03 bc d8 2b ff bd
       0.043658543 -0.042944476 -0.008011927 -0.124595344
000280 0b 9b 19 3d c9 3e d1 3b b0 8e 19 3d 90 6e ed 3a
       0.037501376 0.0063856584 0.037489593 0.0018114615
000290 4d 95 e5 bd 88 34 88 bd 90 b4 99 bd a8 c8 e0 3d
       -0.112101175 -0.066506445 -0.07505143 0.10975772
0002a0 f0 d5 03 bd bc d6 69 bd ad 3f 05 3d 50 90 b8 3d
       -0.03218645 -0.057089552 0.03253143 0.090119004
0002b0 9b 72 6d 3d c2 a8 34 bd 4e 60 b9 3d 5a f3 26 bd
       0.057970624 -0.044106252 0.09051572 -0.040759422
0002c0 cc 98 37 bd b9 50 03 bd 3f f6 99 bd 30 61 07 3d
       -0.044823453 -0.032059405 -0.07517671 0.03305167
0002d0 9e 43 d8 3d a6 9f 87 bb 42 65 85 bd ae 2c 1c 3d
       0.10559772 -0.0041389046 -0.06513454 0.038128547
0002e0 1f 93 14 3e 3c 89 b0 bd 2b 71 d3 bc b8 ca 8b bd
       0.14509247 -0.086199254 -0.025810799 -0.06825775
0002f0 18 ac 40 3d a1 3c 64 bd c1 f0 75 3b da e3 81 bc
       0.04703912 -0.055721883 0.0037527534 -0.015855718
000300 78 8d 10 be 0b 21 71 bd b9 06 54 3d dc b9 c6 bc
       -0.14116466 -0.058869403 0.051764224 -0.024258547
000310 49 14 48 bd 00 a6 5d 3d 5d 07 1a bd 6f 11 04 be
       -0.04884747 0.054113388 -0.03760468 -0.12897275
000320 b1 1f 88 3d 66 f7 91 bd 6b bd eb 3d da 5d 63 3d
       0.0664667 -0.07127266 0.11510738 0.055509426
000330 48 b6 a8 bd a4 0a 2f 3e 25 07 05 be a6 32 17 be
       -0.082378924 0.17093903 -0.12991007 -0.14765415
000340 07 55 b1 bd 5f a2 02 3e 22 ab b8 bd c3 ba 3f ba
       -0.08658796 0.12757252 -0.09017016 -0.00073139014
000350 a3 37 21 3e ef 4c 9c 3b c3 92 c6 3d eb 0a d6 bc
       0.1574388 0.0047699134 0.09695961 -0.026128253
000360 ed 59 5b 3d 42 7b 94 ba a1 6f 85 bd 64 5f c3 3d
       0.053552557 -0.0011328238 -0.06515432 0.09539679
000370 25 e0 c9 3b 1c 11 e9 bd fb 66 90 3d 3b 6b 99 bd
       0.0061607533 -0.113802165 0.07050892 -0.07491156
000380 14 58 80 bd c9 29 bc ba a7 f0 8d 3d 58 98 15 3d
       -0.062667996 -0.0014355715 0.069306664 0.03652224
000390 82 f4 dd bd 6b d8 10 be 9f 89 b1 bd 76 a5 6a 3d
       -0.10837652 -0.14145057 -0.08668827 0.057286702
0003a0 94 5d c7 bc 4b 9e 1f 3d 39 7f cc 3d e6 af 1f bd
       -0.024336614 0.03896932 0.09985203 -0.03898611
0003b0 2c 30 08 3c 21 83 bb bd 5a da a1 3d a8 de 26 3e
       0.008312266 -0.0915587 0.079029754 0.16295874
0003c0 06 8a 9a bc f4 9a bf 3d a3 81 0e 3e 12 2f e8 3d
       -0.018864643 0.09355727 0.1391664 0.11337103
0003d0 2c 69 87 3d 4d bc 12 3e b1 df a3 3d d1 08 b4 bd
       0.06611857 0.14329644 0.0800165 -0.08790744
0003e0 00 5a b3 bd 2a b7 4c bc 6d 60 9e 3d be 3f 11 bd
       -0.087574005 -0.012494842 0.077332355 -0.03546118
0003f0 96 c8 a4 3d 03 ee e7 3d e1 dc f9 3d cf 46 97 3d
       0.08046071 0.11324694 0.122003324 0.073865525
