YOLO_LSTM/best_model_320.pth (torch, 643362 bytes, 17 tensors)

lstm.weight_ih_l0 f4 [256, 51]
00000000: 4db9 dd3a 090c 363e ad10 e8bb 5b25 8fbe
00000010: c1e7 e5bd 19dd a83e e2cd 1abe 17a9 b03e
00000020: 3b6a 333e 7c7c 85be 0c5c 0d3e 9a43 703e
00000030: 7fb4 663d 7bbd 4abe bf7b a5be 9232 9d3d
00000040: 3135 a43c 43c2 1b3e 31e6 4f3c d63f 81bd
00000050: 87b7 083d b6d6 42bc 5aab ae3a 70ea 3f3e
00000060: 190f 8abc bbb6 1bbe 00bf 63bd ce40 24be
00000070: 2406 053e f817 a1bb 3d85 aa3d a13a cfbd
00000080: 7647 853d f78e f03d 220f 22be 8e67 633e
00000090: 990c ea3d 67bc 85bc c509 133e 4d94 c7bd
000000a0: c82b 693e f464 803e bdec b1bc 7218 933e
000000b0: dd65 933e 8405 d9bd 48ee 873e 9e34 e43e
000000c0: 30a9 9bb8 f418 ea3d 4b56 5d3e 4250 c3bd
000000d0: 4c8a 70be 34a6 5abd ea29 113e cd4c afbc
000000e0: e044 c9bd 512c 313d d06d 903d 07d0 61be
000000f0: e432 e3bd d197 92be 1f5e 3abe 7efc 18be
00000100: 9604 d1bd 0127 58be 9b34 44bd 61e0 8fbe
00000110: 92db 74be 6b5e c4be 5aeb f1bd 56da f8bd
00000120: 97ec 14bd 5b5b 9abe 890c b1be 04f8 d9be
00000130: f453 8ebe e58a 33be 95d0 2fbe 6df1 d6bd
00000140: 505f acbe 15c4 efbe 6ba4 23be 14d7 a7be
00000150: fa90 53be 091c 57be f8a0 45be fbbb c7be
00000160: 05f9 70be 14da 73be 2f7d d9bd 9051 28be
00000170: 1525 85be 5f77 2bbe bbce 57be 2533 d3be
00000180: 77f1 11bc 55b7 03be e8c7 cabe 287b 95be
00000190: 8394 26be aa43 aabe a670 e8bc e261 81be
000001a0: dff4 893e 4a3a c2bc a81c 4bbe c4c2 0c3e
000001b0: 3ebe bfbd 3e7f f4bd a03a bd3e f60a 97be
000001c0: 49b4 95be abaf 4ebe e44c 97be 632a 67be
000001d0: 0166 373d da19 a1be 7959 afbe 0207 093c
000001e0: 1ba1 66be 9af7 9fbe 7118 9c3d 341f 73be
000001f0: b4a7 bbbe 1e20 29be 9545 b2be 9544 9cbe
00000200: 168c 5a3c 5dbd 48be d46a d7bd 55ed 7cbd
00000210: 70c3 adbe 325a 20be 32b5 24be 8b28 9ebe
00000220: e00e a9be d4f1 49be 2757 86be d010 81be
00000230: a5b7 d0bc 9a09 b6be bc58 0fbe 1be6 c6be
00000240: cc86 9abe 7737 46be 14a7 7cbe ab05 5fbe
00000250: 125f bebd 7178 0dbf 6aa6 a6be a8e8 8fbe
00000260: eedf f9be 5305 843e aa82 933e 07f2 40bf
00000270: d70c 1b3f 65ab 2e3e 10b0 1dbf 6d9b 003f
00000280: 9b2e ee3e 86ee 3fbf c9c4 b53d 7ba4 7cbe
00000290: 8752 8fbe 7d48 9abe 0fab 2e3d 8b12 c5be
000002a0: 6d4d 95bc 95d8 793c 4c88 11bf 6d55 11be
000002b0: 63f9 163e e269 0dbf 8c33 853d 7fbb 0bbe
000002c0: 29cc 15bf fcaa ccbc 713f 373e ba8b 31bf
000002d0: 7b54 243e 3d24 04bc 97a5 0cbf 7600 053e
000002e0: 35ea 0d3d 21d8 14bf 2038 95bd 40fb 413d
000002f0: 5ce9 19bf 7e79 13be c87a 353d adfd 1cbf
00000300: 3dbf 7f3e 22bb 0b3e e567 33bf 2203 903d
00000310: 3ca1 fc3c 4cd6 39bf f5c6 3c3e 0e34 913d
00000320: 3356 66bf b112 c03d f37e 253e c47f 48bf
00000330: 882d 27be f880 b63d 0846 a83d 7840 d2be
00000340: 6953 04be d655 663d cd42 b2be 1e87 42be
00000350: de79 01be 72b5 4ebd ddc1 f73d 6157 1e3f
00000360: ccc5 253f f6d7 d23e cec5 bc3e f8a2 b8bd
00000370: 4760 823e e740 b83e 256e 133d d432 963e
00000380: 1d4b 003e 49ca 0f3e 51e8 173f 0b97 bb3e
00000390: c9b8 483e feb1 a13e 3aa8 713d 719f f63d
000003a0: 0b00 f63e d45c e33e 641f 6c3e 71e4 083f
000003b0: d83d 533e 00a5 9fbd 5a99 a23e 30cf 9d3d
000003c0: 0953 513e 2b11 b03e c190 173e 8b1a 28be
000003d0: 34eb 6f3e 290f bb3e 9334 b4bd 0c50 8e3e
000003e0: d1bd d33e 5963 82bd 34a4 053e 81cd c63e
000003f0: 91bf 09be 88c1 cd3d 33dc e73e 2355 c6bd
0.0016916186 0.17778029 -0.007082066 -0.27958187 -0.11225844 0.32981184 -0.151176 0.34504005
0.17520992 -0.26071537 0.13804644 0.23463288 0.05632448 -0.19798844 -0.32320973 0.07675661
0.020044895 0.15210824 0.012689159 -0.06311004 0.03337815 -0.011892011 0.0013326213 0.18741775
-0.016852902 -0.15206425 -0.055602074 -0.16040346 0.12990624 -0.0049161874 0.083261944 -0.101186045
0.06507771 0.117460184 -0.15826085 0.22207472 0.11428184 -0.016325189 0.14359196 -0.09745083
0.22770607 0.2507702 -0.02171933 0.28729588 0.28788653 -0.10596755 0.26548982 0.44571394
-7.4224896e-05 0.11430541 0.2161495 -0.09536792 -0.23490256 -0.05338116 0.14176145 -0.021398926
-0.0982759 0.043255154 0.07052195 -0.22052012 -0.11093691 -0.28631452 -0.18199967 -0.14940068
-0.10205953 -0.21108629 -0.04790173 -0.28100875 -0.23911884 -0.38353285 -0.11812468 -0.12151019
-0.036358442 -0.30147824 -0.34579876 -0.42572033 -0.27798426 -0.17533453 -0.17169411 -0.10495267
-0.33666468 -0.46829286 -0.15980689 -0.3278128 -0.20660773 -0.21006788 -0.19299686 -0.39010605
-0.23532493 -0.23813659 -0.1061958 -0.16437364 -0.26004854 -0.16744755 -0.21074955 -0.41249958
-0.008907667 -0.12862904 -0.3960564 -0.29195523 -0.1626759 -0.3325475 -0.028374027 -0.2526999
0.26944634 -0.023709435 -0.1983515 0.13746172 -0.09362458 -0.11938332 0.3695879 -0.2950055
-0.2923911 -0.201842 -0.2955085 -0.22574763 0.044775013 -0.31465036 -0.3424795 0.008363487
-0.22522394 -0.31243593 0.07621849 -0.23742372 -0.36651385 -0.16516158 -0.34818712 -0.30521074
0.013339063 -0.19603486 -0.10518423 -0.061749775 -0.3393817 -0.15659407 -0.16084746 -0.30890307
-0.3301916 -0.19721156 -0.26238367 -0.2520814 -0.025478194 -0.355542 -0.13998693 -0.38847432
-0.30180967 -0.19357096 -0.2467311 -0.21779506 -0.09295477 -0.55261904 -0.3254884 -0.2810719
-0.48803657 0.25785312 0.28810626 -0.75369304 0.6056647 0.1705757 -0.61596775 0.5023716
0.46519932 -0.7497333 0.088754244 -0.2467212 -0.2799265 -0.3013343 0.042643603 -0.3849071
-0.018225396 0.015249391 -0.568486 -0.14192744 0.14743571 -0.5523969 0.065039724 -0.13645743
-0.5851465 -0.024983875 0.17895295 -0.6935383 0.16047852 -0.0080652805 -0.5494017 0.12988457
0.034647185 -0.58142287 -0.072860956 0.04735875 -0.60121703 -0.14401814 0.044306546 -0.6132458
0.24975295 0.13645604 -0.70080405 0.070318475 0.030838601 -0.72592616 0.18435271 0.07090007
-0.8997528 0.09378565 0.16161709 -0.78319955 -0.16325963 0.089113176 0.082164824 -0.4106481
-0.12922443 0.056234203 -0.3481659 -0.18996856 -0.12644145 -0.05046601 0.12097523 0.6185208
0.6475494 0.4118039 0.36869663 -0.09015459 0.2546408 0.35987017 0.035993714 0.29335654
0.12528653 0.1404201 0.5933886 0.36638674 0.1960174 0.3158111 0.058998324 0.1204213
0.48046908 0.4440676 0.2305885 0.53473574 0.2062906 -0.07795143 0.31757623 0.077055335
0.20441832 0.34388098 0.14801313 -0.16416375 0.23429567 0.36535004 -0.0879909 0.27795446
0.41355756 -0.06366605 0.1305092 0.38828662 -0.13451983 0.10046679 0.45285186 -0.09684207

lstm.weight_hh_l0 f4 [256, 64]
00000000: bc53 f23e af1c 0dbe bc84 763e e427 9b3e
00000010: 9af9 22bf 1263 43be 22c8 233e 87b5 393d
00000020: 327d 413f 5071 2c3e eb45 43bd 7fce ebbd
00000030: 80c3 90be 509e f73c 782d 4b3c b661 bebe
00000040: 2a44 e6be 8a3e 453f 37c9 03ba ddf0 bebd
00000050: bdea 2dbd e363 233f 177c 8fbd b069 1ebe
00000060: 60dc 3b3e f912 8cbe 7e63 6dbe 99f0 ed3e
00000070: 4dde 13bc 5724 3bbf 99a7 d0be 2dff 59bd
00000080: 2d11 17be b496 ab3e 333f 2f3e 0795 0bbd
00000090: f3c5 f0bd f0b4 a9be 6837 713e 6450 cabc
000000a0: eb14 3d3e 4fc8 0bbe c507 133f d39c 583c
000000b0: 223d fb3d a583 4cbe 4776 a3be b122 a5bc
000000c0: 6396 ff3d 38c0 37be 6e86 903e 2553 b1bd
000000d0: 6e60 3abe ad2d 6d3d decb 853e 3d46 9cbd
000000e0: 871e ff3e 8d77 1dbc dfbe 313d 3e89 72bd
000000f0: f704 203f 1c5f 2dbb bed3 84be 2c4e 14bf
00000100: 737e 6dbe 2346 7e3d 5151 be3e ce40 bc3e
00000110: 0e57 59bd c929 38bd 155a e23d 2113 b13d
00000120: e38f 00be 1b6c e43e 8b34 b53e 7bea a6be
00000130: 1fe7 ba3e 02ef c73e 5046 453e 9649 64be
00000140: 2d3c ca3e e289 17be 4c25 c13d 1ab6 a1be
00000150: 33d2 5d3e 9a7b 37be 6ae5 d23d 315a 6f3e
00000160: bf0b ffbe 35a5 f0bd 6eaa fdbd 6128 75be
00000170: ec29 1a3e 335a a53d 4833 0d3f b1ef 593e
00000180: 1a59 85be f6f0 38be 3815 663e 0914 983e
00000190: 3f28 9a3d 8ac7 85be ba43 ff3e 2ed7 2dbe
000001a0: 3ba7 8bbb 994b 923e 5b83 90be 0bed 813c
000001b0: b538 19be ba3f bcbd 95f1 c13d 525d 86bd
000001c0: c83b febd fb74 c9be ca2f 89bd 638c f4bc
000001d0: a4f8 b03e 1244 97be a176 303c d098 5f3e
000001e0: b5dd 79be e5a6 823e 3d3e e8bd 5455 8a3d
000001f0: fdfa d9bd 922d 933e 8466 68be baef d63e
00000200: 2066 5abd 0809 30bd b821 c33e deb1 76be
00000210: 8996 4bbe 66c6 8d3d 9c9d 983d 007f 103e
00000220: 7aa2 29be a3eb 6a3d be3e 973e a68a 9a3e
00000230: 8e74 0c3e 2e6b 523e 494b 55bd 1ff9 f7be
00000240: b7a2 b7bd 4ee0 f13e 45f1 8c3e 139b 3cbd
00000250: 67aa fa3e 41c8 9bbd a914 343e 73ae eabd
00000260: af41 dbbd 9917 92be 0afe 713e ad45 82be
00000270: b95b b5bd 43dd d9bd e1b9 823e 9146 78be
00000280: 7683 62be 1729 84be 7829 623e b331 9b3d
00000290: 5eb8 1a3e 118b 093e 1f6a f23d a48b 163d
000002a0: b559 843e c961 2b3d c8af 4ebe 5def d63d
000002b0: d1f1 573e cac5 283e 07ed a03e a93c 5b3d
000002c0: a6f8 113d d39a ddbe dc83 09bd 9925 063e
000002d0: 9cdf 24be 0c1f e3bd 822c ed3e 5a25 9ebe
000002e0: f5ff 52bd 66fb 093d ba5a 25be 1d00 ce3d
000002f0: 58f7 533e b5fd aa3e 5231 2f3d 1cce 6fbd
00000300: 63e2 b8be 55a2 34be d697 d93e 1545 5cbe
00000310: e75f e83e 5e5e 7b3e 8f8e 80bd 69b9 02be
00000320: 8aea 31bf 06e3 2b3e d450 323e 8ca2 b93d
00000330: 7c4f 3c3e 612f d83e 6da4 463c d51d c93e
00000340: 8a0a 7ebe 586e 20bf 8658 c9ba 3076 b43e
00000350: d762 e73e 2cf7 b0be b4b0 173e fe9a 7a3e
00000360: bfa4 b9be 7156 78be ace2 adbe e50c 59be
00000370: dad5 063f 5fd7 453e 4f58 4f3e 04cd cebd
00000380: e610 a3be fff1 7a3e abc0 a4bc f0e1 abbd
00000390: c365 4e3e 6b4d 41bd 957d ec3d 04fa 38be
000003a0: ceb7 0d3f 3bc2 d23e 3fd1 2fbe fae3 b7be
000003b0: 0d8b bcbe 0942 733e ab0e b33d ca3b 4dbf
000003c0: 580a 9e3d 123e 1bbc 23a8 e73d ac85 19be
000003d0: 1422 513e 2be0 afbe d9c2 0c3e a6e7 e13d
000003e0: c0a1 71be 5206 063e ddae 003e deed 273e
000003f0: 1422 51bf 7126 fc3e e5e7 8d3e 22f2 c83d
0.4732951 -0.13780473 0.24074072 0.30303872 -0.6366211 -0.19080761 0.15994313 0.045339134
0.7558166 0.168401 -0.0476741 -0.115139954 -0.28274155 0.030226856 0.012400977 -0.37183923
-0.4497388 0.7704855 -0.0005027237 -0.09323285 -0.042460192 0.6382429 -0.0700609 -0.15470004
0.18345785 -0.27358225 -0.23182485 0.46472624 -0.009025169 -0.73102325 -0.40752867 -0.05322187
-0.14752646 0.33513415 0.17113952 -0.03407767 -0.11756506 -0.33145857 0.23556292 -0.024696536
0.18465011 -0.1365063 0.5743373 0.013220984 0.122675195 -0.19972093 -0.31926176 -0.020158144
0.12479856 -0.1794442 0.28227562 -0.08658437 -0.18200848 0.057904888 0.261321 -0.076305844
0.49827978 -0.009611023 0.04339492 -0.059212916 0.62507576 -0.0026454395 -0.25942796 -0.5793178
-0.23192768 0.062078606 0.37171414 0.36768192 -0.053061537 -0.044961724 0.11052338 0.08646227
-0.12554888 0.44613728 0.3539165 -0.3260077 0.36504456 0.39049536 0.19265103 -0.22293696
0.39499035 -0.14798692 0.09430942 -0.31584245 0.21662216 -0.17918244 0.102976635 0.23374249
-0.4981365 -0.11750261 -0.123860225 -0.23941185 0.15055054 0.08073845 0.55156374 0.21282841
-0.26044542 -0.1806067 0.22469032 0.29702786 0.075272076 -0.261288 0.4985636 -0.16976616
-0.004261879 0.285733 -0.28225216 0.015860101 -0.14963038 -0.091918424 0.09469906 -0.06560768
-0.12413746 -0.39347062 -0.06698568 -0.029852098 0.34564698 -0.2954412 0.010770471 0.21835637
-0.24400981 0.25517955 -0.11339996 0.06754556 -0.10643575 0.28745705 -0.22695357 0.41979772
-0.05332005 -0.042977363 0.38111663 -0.24091288 -0.19881643 0.06922607 0.074519366 0.14110947
-0.16565886 0.057353627 0.29540056 0.30183905 0.13716337 0.20548698 -0.05207375 -0.48432252
-0.08966582 0.47241443 0.27527824 -0.046046328 0.48958132 -0.07606555 0.17586006 -0.11459055
-0.107058875 -0.2853363 0.23632064 -0.25443783 -0.08855385 -0.106379054 0.2553244 -0.24245669
-0.22120461 -0.258126 0.22086132 0.07577839 0.15109393 0.13431956 0.11836647 0.036754265
0.2584969 0.041841302 -0.20184243 0.10494874 0.2108834 0.164817 0.31430838 0.053524647
0.03563752 -0.43282184 -0.033573017 0.1310028 -0.16100925 -0.11089906 0.4632302 -0.30887872
-0.05151363 0.033687018 -0.1614789 0.10058615 0.20699823 0.33396688 0.042771645 -0.05854617
-0.3611022 -0.1764005 0.42498654 -0.21510728 0.45385668 0.24547717 -0.06277191 -0.12766041
-0.69498503 0.16785821 0.17413646 0.090642065 0.18389696 0.42223647 0.012124163 0.39280573
-0.24808708 -0.6266837 -0.0015361465 0.3524642 0.45192596 -0.34563577 0.148135 0.24473187
-0.36258504 -0.24251725 -0.33962 -0.21196325 0.5267006 0.19320439 0.20248531 -0.100976974
-0.3184883 0.24506377 -0.020111402 -0.083927035 0.20156007 -0.047192972 0.1154739 -0.18064123
0.5535859 0.4116381 -0.17169665 -0.3591612 -0.36824837 0.23755659 0.08743032 -0.80169356
0.07716817 -0.009475248 0.113113664 -0.14992398 0.20423156 -0.34350714 0.13746203 0.110305116
-0.23596859 0.13088349 0.12566705 0.16399333 -0.81692624 0.49248078 0.27715984 0.09811808

lstm.bias_ih_l0 f4 [256]
00000000: 4be0 24be d2e6 87be 9aa7 afbe 8369 503e
00000010: 37e2 803b 9081 8abe edbf 49be 37fc 78be
00000020: 4356 0fbf 850d 02bf d0d4 b8be 65e6 643d
00000030: 449a 07be 5d14 9cbe 88c6 0ebf e4f1 2b3e
00000040: 2d70 9d3e 6031 813e 6bd0 f5bb a236 cfbd
00000050: ad90 11be dc08 69bd 66ce debe 7a9b d6bc
00000060: cc83 79be 40e6 78be 615f 74be b44e 30be
00000070: 2a9e ebbe dea3 08bf ea1d 953d d510 0cbc
00000080: 741c b7be 71a0 12bf d8ed d0be cd91 c4be
00000090: d65e d63c 6f73 6cbd d64b 76be 9767 a1be
000000a0: e6be c9be 7b70 be3e 6690 063d 4359 f4be
000000b0: 9812 90be c0e3 4a3e 1fbc a6be 9a64 243d
000000c0: 56a1 18bf 96e3 7fbd b880 3bbd 84d6 ccbe
000000d0: 1858 183c 952f 4d3e d665 84be 0ea4 c03d
000000e0: a251 86bd 12f1 01be 0d58 cd3d 47db a2be
000000f0: e067 9c3d c7b5 cbbd 3075 d13d 9668 25be
00000100: 9b9d d3bd f0f2 fcbe 71e9 8dbe eb1e eabe
00000110: 2890 03be c775 c3be 5593 edbd 9ef5 74be
00000120: f1f9 123d 0b3b 6dbe b712 07bf 8d09 693c
00000130: 62d9 eabd 7e88 2fbe b570 083e 962b 79bd
00000140: b807 10be 5e44 87be 7673 48be ab64 5a3d
00000150: aa4f 21bd d1ab 8bbe f81e 77be 5e1e 80be
00000160: 2520 dcbe f7df abbe 2fa9 8abe 8a00 e1bc
00000170: 7f1b c1be 4bf5 7bbd 389b 03bf f5af 0ebe
00000180: ebab debe 6d2f 33bf b3fd 49bd 58d1 b2be
00000190: 146e 6dbc f493 ba3c 723a 9bbe a19a 1fbe
000001a0: c14a 0cbf 3657 f63e 8af5 a9be 7025 c4be
000001b0: c2ca 93be be09 013e 64ae b5be dee0 a1be
000001c0: 6532 14be f297 82be f201 4c3d 0632 eabe
000001d0: a9cb 9d3c c989 45be f085 1fbe 1adc 423c
000001e0: c7f3 8dbe e881 e3be b1c1 c8bd b89f d6be
000001f0: 7a70 87be 6f15 61be d3c7 1abe 2735 83bc
00000200: 3636 f6bc 1944 a2be ad95 af3e 9aa1 d2be
00000210: 2d74 3e3e 15ca c33e 28a8 c1bd 5657 80be
00000220: 7ebc 33be 96a6 15be 379a 34be de3a 833e
00000230: b17a 70bd 7b96 d63e aac2 8ebe a8ce 613e
00000240: fe72 1ebf e495 cabc 17f7 46be 149c 5d3e
00000250: 654b de3e fc87 77bd 1355 3d3e 6f4b 813e
00000260: ca0e c9bd ee8c 60be 716a a63d 84e0 333e
00000270: 4696 bbba 40a6 233e 947c f93d 9e35 86be
00000280: c691 aebc 259a ccbc 3d8a 003f 95c9 8e3e
00000290: 0b5d 963e 6cb8 ee3d 6e6d 453e 472b eebe
000002a0: 1180 d43e f5bb 0a3f c957 d83e fb38 ba3d
000002b0: 4716 3dbd 5f49 d73e 494d 76be 0389 01bf
000002c0: 7cfa 5c3d 6042 553e f016 11bf b75b dfbd
000002d0: f386 b6be 7912 d4bd 7be4 893e f8ea 1abe
000002e0: 5814 04be a039 df3d a5c5 bc3d ea9f 3e3e
000002f0: 02a7 c8bd 73ae 0ebd 72c9 5b3e cd30 24be
00000300: e8d6 6cbe d6f6 25bf 3585 8cbe 8d65 fb3d
00000310: 1196 5fbe 7b5f e0be 0202 d3bd f483 0bbe
00000320: 19c9 803e 6d6c 0fbf 1cc1 c7be 44ae 8a3d
00000330: 8d23 45be 1f81 e0be d9b0 5a3e 81a9 713d
00000340: 797a 20bc 629d 76bd 9fc9 a0bd c387 66be
00000350: ea47 953d 23e6 70be e685 d7be b91e d5bc
00000360: 0956 e1bd a254 05bf 3fe4 96bd 35b3 0ebe
00000370: b772 e1be d51e 97bd 42ab 79bd 999e 4ebc
00000380: 0f62 f4be 03d8 17bf c95e 61be e872 eabe
00000390: 33bb 9f3d ece8 233d 572f 94be 523b ecbe
000003a0: f1fb 6bbe 5b52 44bd a721 60be 1548 0dbf
000003b0: 5eb4 01bf 58e6 43be 8d59 21bd d604 483e
000003c0: 6358 debe a35a 9fbe 72a5 5b3e 7e1a 01bf
000003d0: 3b67 813e 5b05 14be ca0b 54be a41e 00be
000003e0: fd93 30bd c2d5 9fbd 7f8a 633c 4a50 dcbe
000003f0: 2d39 0a3c 1be8 62be e2ed 6dbe 985b a73d
-0.16101186 -0.2654329 -0.34307557 0.2035275 0.003933217 -0.27051973 -0.1970212 -0.24314962
-0.55991 -0.5080188 -0.36099863 0.055883784 -0.13242441 -0.30484286 -0.55771685 0.16791493
0.30749646 0.25232983 -0.007501652 -0.10117842 -0.14215346 -0.056893215 -0.43516845 -0.026197184
-0.24366683 -0.24306583 -0.23864509 -0.17217523 -0.46019107 -0.5337504 0.07281096 -0.008548935
-0.35763896 -0.57276064 -0.4080646 -0.38392487 0.026168268 -0.057727274 -0.24052367 -0.31524345
-0.39403456 0.3719519 0.032852553 -0.4772435 -0.28139186 0.19813442 -0.325654 0.040135004
-0.5962118 -0.062472902 -0.045777053 -0.40007412 0.009298347 0.20037682 -0.25858945 0.09406291
-0.06558539 -0.12689617 0.1002656 -0.3180792 0.07637 -0.09946781 0.1022743 -0.16153178
-0.10332795 -0.49404097 -0.27717164 -0.45726714 -0.1284796 -0.38175794 -0.11600367 -0.2392182
0.035882894 -0.23167054 -0.5276293 0.0142234685 -0.11467244 -0.17141911 0.13324244 -0.060832582
-0.14065444 -0.26419348 -0.19575295 0.05331866 -0.039382614 -0.27279523 -0.24132907 -0.25023168
-0.42993274 -0.3356931 -0.27082202 -0.027466077 -0.3771629 -0.061513226 -0.5140872 -0.1393431
-0.43490538 -0.6999424 -0.049314212 -0.34925342 -0.014491577 0.022775628 -0.30318028 -0.1558633
-0.54801565 0.48113412 -0.33195144 -0.38309813 -0.2886563 0.12601373 -0.35484612 -0.31616873
-0.14472349 -0.2550655 0.049806543 -0.4574129 0.019262152 -0.19290842 -0.15578437 0.011893297
-0.2772505 -0.44435048 -0.09802569 -0.4191873 -0.26453 -0.21980833 -0.1511529 -0.016016556
-0.030055147 -0.3169258 0.3429388 -0.41138917 0.18599005 0.38240114 -0.094559014 -0.25066632
-0.17552373 -0.14614329 -0.17636953 0.2563085 -0.058710758 0.41911682 -0.27882892 0.2205149
-0.61894214 -0.024729677 -0.19430195 0.2164157 0.43416896 -0.06043242 0.18489484 0.25252864
-0.09817274 -0.2192876 0.08125771 0.17566115 -0.0014311753 0.15981388 0.121819645 -0.26212782
-0.021309745 -0.024975846 0.50210935 0.2788817 0.2936786 0.116562694 0.19280025 -0.46517393
0.41503957 0.5419305 0.42254475 0.090928994 -0.046163823 0.42048165 -0.2405292 -0.5059969
0.053949818 0.20826101 -0.56675625 -0.10906165 -0.35649833 -0.10355086 0.2693213 -0.15128696
-0.12898386 0.10899663 0.09217385 0.1861569 -0.09797479 -0.034834336 0.21463564 -0.16034241
-0.23128855 -0.64829767 -0.2744538 0.12275229 -0.2183459 -0.43822846 -0.10303117 -0.13624555
0.25153425 -0.5602482 -0.39014518 0.0677152 -0.19251843 -0.43848512 0.21356525 0.058999542
-0.009794825 -0.060208686 -0.07850956 -0.22512726 0.07289107 -0.2352529 -0.42094344 -0.026015626
-0.11002738 -0.52082264 -0.07367753 -0.1393555 -0.44032833 -0.073789276 -0.06095434 -0.012611055
-0.47731063 -0.5931398 -0.22008814 -0.45790792 0.07799377 0.040017053 -0.28942367 -0.46139008
-0.23045327 -0.047930103 -0.21887837 -0.55188113 -0.50665843 -0.19130838 -0.039392043 0.19533095
-0.4342681 -0.31123838 0.21449831 -0.5043105 0.2527407 -0.14455168 -0.20707622 -0.12511688
-0.043109883 -0.07804443 0.0138880005 -0.43030006 0.008436483 -0.22158854 -0.23235276 0.08171767

lstm.bias_hh_l0 f4 [256]
00000000: 15e6 2bbe 0596 11be 1d8d cfbe cf35 0f3e
00000010: 3fe4 133d 0927 d8bd 287c 66bd cbb9 87be
00000020: 5612 e6be d464 b2be 4cce bcbe d1aa aebc
00000030: ed5a 9bbc e669 4abe 1de0 e7be b17f aa3d
00000040: 3877 7f3e 608e 3b3e b7f5 6d3d f77f 693d
00000050: 9d09 53bd 2390 7d3d ccdf 98be 27c0 d7bd
00000060: ee68 6bbd a421 3fbe 09a4 60be 8c12 6dbe
00000070: 6430 f3be 6f86 0bbf ce0f 843d 53f3 39be
00000080: 76c9 f4be d182 29bf 99da 81be 9b7f a1be
00000090: b8c4 a5bd c3ab 1f3d 7ea2 a1be d401 1ebe
000000a0: 6292 6abe e320 c33e 37c6 b4bd adfb 09bf
000000b0: a0ba 36be 033a 383e c6bd abbe e1e8 30bd
000000c0: 9f89 01bf 3c5f 6cbe de82 41bd 5a89 ffbe
000000d0: 9ba6 2b3d e4ce a3bc 743e 2dbe 54d0 343d
000000e0: 5c2d 043e 92d2 9abd 51d2 65bc 11ed c5be
000000f0: 65df f63d ee41 4abe dadc aa3d 65a0 59be
00000100: a854 27be bd70 10bf fed3 aebe 49a5 f4be
00000110: bad0 53be a66e b7be 7029 1cbe c935 80be
00000120: f1ab b73d 8ead 96be 0582 b6be 3885 313b
00000130: 2a2b 683d 9a6c 33be 814b d43d a89f 6abd
00000140: 14b4 9dbd 4fa4 b3be 40a5 f5bd 85b9 963d
00000150: 30df c9bd 9f7b 83be 9c54 69be 1208 85be
00000160: 56ed 87be 4a2b acbe 0c97 87be a426 3cbe
00000170: 1779 cfbe 0bca e8bd a671 e2be e632 0dbd
00000180: 3f1f 99be 24cd 1bbf 3ad2 b83c a133 e8be
00000190: fba6 683e 61c6 fbbc 0385 9cbe f857 adbe
000001a0: e3a5 3abf a960 d83e ffba efbe c37b 1cbf
000001b0: 7e49 b7be d006 4a3e b792 7cbe 71da 5ebe
000001c0: f183 a5be 98f6 9ebe 652d 24bc fc5d c1be
000001d0: 62b7 fa3c d569 72be b1b0 53be b77a b23d
000001e0: 5e9f 8abe 2fa4 e3be b8d0 e1bd 57c1 bcbe
000001f0: cff3 93bd 3cec 80be a696 5bbe b049 a43d
00000200: 9d39 1dbe e502 d7be a70b f23e 736b d0be
00000210: 79fe 3b3e 3b84 643e 0b1c 5abe d58d 84be
00000220: 3a46 38bd 35fc 18be bd2f 27be 8a0f e83e
00000230: 4ae7 e0bd 5966 d53e df61 4ebe c596 f53d
00000240: d60a 23bf 0cfb 213e a6bd 81be fc82 a23e
00000250: a7c4 ca3e 476c e63c a93b bc3e 4d34 8b3e
00000260: 55bb a83d 6c66 67be 6f9c e7bd 52fe ed3d
00000270: a64a 053e d174 8fbc cbf2 303e 7638 8fbe
00000280: 9476 d73d e4fc d93d 92b6 263f 1118 9c3d
00000290: 179e 783e a853 6d3e 2634 d93d 35dd 9fbe
000002a0: 0507 083f 917e 0a3f bf0d b13e e43a 08bd
000002b0: 400d 22bd 2438 133f ea21 b4be b0d7 f6be
000002c0: 8d28 953e f78e b23d b345 01bf fc02 d5bd
000002d0: 0a0a 3cbe 66b0 b0bd 46a1 be3e 1c1d eabd
000002e0: 30fa 13be b4e6 143e 36e7 1d3e 793f 013e
000002f0: 840b cb3d fcd8 273d b9d9 353e 68d5 77be
00000300: c648 89be 3ef5 1fbf 9d65 b3be 2cd2 86bc
00000310: 2d6b 1dbe 4126 60be 3700 0bbd 6ad5 89be
00000320: 912b 6b3e d90d 09bf 14cb 6fbe 83bd 13be
00000330: 7a38 abbe 8c41 a0be 2a66 6b3e 9feb 14be
00000340: 7887 a4bc d407 123c f726 76be 2b04 a9be
00000350: c765 95bd 1e32 3bbe 8b57 dfbe e0c3 6fbe
00000360: f6fa 30bd b97c 8fbe 3250 c1bc 53cf 85bd
00000370: 0fc9 dfbe d13b 2cbd 7fe0 33be 1b9d c73d
00000380: 919f c6be e501 38bf 0764 13be 6a66 7ebe
00000390: bc59 b53d 0cb0 4dbd 9c04 59be 4bdf d0be
000003a0: c166 abbe c7e5 c13c d963 4dbe 0123 17bf
000003b0: d60c 12bf 992b e0bd 6907 49be 666f 323e
000003c0: e4cc e9be 0eac 75be e119 823d 7642 28bf
000003d0: 0f31 7c3e acdd 6cbd c338 73be 43e2 16bd
000003e0: 2eb0 04bd 3cd0 22be 4d1f be3d 2216 a7be
000003f0: 2123 103e 9188 b6be 6eaf 7ebe ca75 f83d
-0.16786988 -0.14217384 -0.40537348 0.1398537 0.036106344 -0.1055432 -0.05627075 -0.26508936
-0.44935864 -0.3484255 -0.36876142 -0.021321686 -0.018964255 -0.1976696 -0.45288172 0.083251365
0.24947822 0.1831603 0.05809566 0.057006802 -0.05152284 0.061905038 -0.29858243 -0.10534697
-0.057473116 -0.18665177 -0.21937574 -0.23151606 -0.47497857 -0.54502004 0.06448327 -0.18159227
-0.47809952 -0.66215235 -0.2536209 -0.31542668 -0.08094162 0.038982164 -0.31569284 -0.15430385
-0.22907403 0.38111028 -0.08826869 -0.5389965 -0.1784463 0.1799088 -0.33543223 -0.04319084
-0.5060062 -0.23083204 -0.047243945 -0.49909478 0.041906934 -0.019996114 -0.16918355 0.04414399
0.12907928 -0.07559694 -0.014027194 -0.3865743 0.12054328 -0.19751713 0.08342905 -0.21252592
-0.16340888 -0.56422025 -0.34146112 -0.47782353 -0.20685092 -0.35826606 -0.15250182 -0.25041035
0.08968342 -0.29429287 -0.35646072 0.0027087461 0.05668179 -0.17521897 0.10365964 -0.057281166
-0.07700363 -0.35086295 -0.119944096 0.07359604 -0.09857023 -0.25680253 -0.22786182 -0.2598272
-0.2654826 -0.33626777 -0.26482427 -0.18374115 -0.40522072 -0.11366662 -0.44227332 -0.03447237
-0.2990665 -0.60859895 0.022561181 -0.4535189 0.22719948 -0.030734243 -0.3057023 -0.33856177
-0.72909373 0.42261246 -0.46822354 -0.61126345 -0.35798258 0.19729161 -0.24665342 -0.21763016
-0.32327226 -0.3104751 -0.0100205885 -0.37767017 0.030605022 -0.23673184 -0.20672871 0.08714812
-0.27074713 -0.444612 -0.11026138 -0.36866257 -0.07224237 -0.25180233 -0.21444187 0.08021867
-0.15354009 -0.41994396 0.47274515 -0.40706977 0.18358792 0.22316067 -0.2129976 -0.2588946
-0.04498885 -0.1493996 -0.16326804 0.45324355 -0.10981615 0.41679648 -0.20154522 0.11991648
-0.6368841 0.15818423 -0.25340003 0.31740558 0.3960316 0.028127803 0.36764267 0.2718834
0.08238856 -0.22597665 -0.11309134 0.116207734 0.13016757 -0.017511757 0.17280118 -0.27972764
0.10520664 0.10643938 0.6512233 0.07621778 0.24279056 0.23176444 0.1060565 -0.31223455
0.5313571 0.54099375 0.345808 -0.033259287 -0.039563417 0.5750754 -0.35182124 -0.48211432
0.291325 0.08718675 -0.5049698 -0.1040096 -0.18363205 -0.08627395 0.37232417 -0.114313334
-0.14450908 0.14541131 0.15420231 0.12621869 0.09914306 0.040978417 0.17758836 -0.24202502
-0.26813334 -0.62483585 -0.35038462 -0.01645764 -0.15372916 -0.21889593 -0.03393575 -0.26920635
0.22965838 -0.53536755 -0.23417312 -0.14427762 -0.33441526 -0.31300008 0.22988191 -0.14543007
-0.020084128 0.008912999 -0.24038301 -0.33010992 -0.07294803 -0.18280837 -0.43621477 -0.23414564
-0.043208085 -0.28024843 -0.02359781 -0.065336846 -0.43708083 -0.042049233 -0.17566107 0.09746762
-0.38793615 -0.7187789 -0.14393626 -0.24843755 0.08855006 -0.05021672 -0.21193165 -0.4079536
-0.33476833 0.023669137 -0.2005762 -0.59037787 -0.57050836 -0.109458156 -0.19631733 0.17425308
-0.45664132 -0.23991415 0.06352592 -0.6572641 0.2462809 -0.05782859 -0.23752122 -0.036836874
-0.03239458 -0.15899748 0.09283314 -0.32634073 0.140759 -0.35651067 -0.24871609 0.121318415

lstm.weight_ih_l0_reverse f4 [256, 51]
00000000: 71e1 9bbe beaf d8be 993e ccbe 5540 febd
00000010: 1789 afbe b309 bcbe f516 3abe 92cd dcbe
00000020: cd6f 04bf 644c 2dbe 4644 98be 0bfb e7bd
00000030: 7b23 93be 346a 0fbe 70dc 93be 6439 20be
00000040: 2f0b cfbd 478d 22be 7b84 27be 18a3 22be
00000050: d102 73be 892a 16be c095 0ebe 5982 a5bd
00000060: 2cd5 42be af23 54be 2aa3 ff3b 45db 84be
00000070: a764 98be 75ba fdbd fc33 8abe de4f 95be
00000080: c820 40bd a323 59be a9f0 99be 696d 333d
00000090: 2996 bfbe 25c5 7cbe 1ddf 18bd 84db 9ebd
000000a0: bf94 7cbe 9a07 a2be a8eb 97be c366 16be
000000b0: 6503 4fbe d574 3bbe 5339 9fbe b1bc a6be
000000c0: 15f8 9bbd cd88 37be f9f9 c6be 6b19 de3c
000000d0: 752c 6abe 699c efbd 0392 8c3e 5ff6 59bc
000000e0: 4539 1abe 0c20 1d3e 68f2 b53d 6778 adbe
000000f0: 0ce1 90bd bf36 62bd 8576 49be ca5b ce3c
00000100: 4f85 24be 58c1 9ebe 3e0d 20bf 7a00 0ebf
00000110: b159 c4bd 80fe 3abf d665 b9be 83d8 2b3d
00000120: f1d0 38bf 56c4 cdbe a052 203e 80dd 44bf
00000130: 0900 0cbf 0ff6 5ebc 776d babe f789 a6be
00000140: 6523 dd3d 5b5a 10bf 66ae 9fbe d652 3f3c
00000150: e7fe 36bf 744b a2be 6232 56bd 2cda 32bf
00000160: 66aa 94be 52f6 053e 46fa f4be d000 9fbe
00000170: 8b9f 18be de49 00bf b730 18be bd5c eabd
00000180: aacf 94be 8c8b abbe 584e 35be 9d97 c7be
00000190: 4a26 f3bd 15fc 4bbe 78fc 2d3c 24d5 a0be
000001a0: 7c07 a4bd 1bcb 0f3e ccfe 18bc b649 eabd
000001b0: c65d 16be 07f9 20be 021d 07be 87f4 bfbc
000001c0: f4a1 37be c109 61be 94d8 1ebf 1a9a 74bd
000001d0: 41cd 82bd 54e9 6dbe c6d6 eebd 0b0f 77be
000001e0: 7067 a4be 6889 8ebe 555c b0bd 94e3 d4bd
000001f0: b8c2 b9be 5d72 e3bd 9a32 f3be 9df6 96be
00000200: 69e1 99bd 97eb 35bb 7357 d1be 72ac 2ebe
00000210: 51e5 e1bd 631d cdbe d82d 81be 7558 9ebe
00000220: feca 23be 97d9 51be 46dd d2be 0e0d abbd
00000230: a94f 16be 1043 0d3e 9dc1 d2be a18b 75be
00000240: 64b0 673d d05b c4be 8b77 38be da0b 80bd
00000250: de0c 42be 8cbb a3be 327d 1e3c 8364 bcbe
00000260: 54be 94be a7ef 92be b81d 26bd 3fff a93c
00000270: 6dbf 05be 6da8 4abe e4c9 383e 87f9 95be
00000280: c109 463d 2279 cf3d bf28 a4be 56f7 67be
00000290: 7c8d 39bc 2098 b4be f303 6dbe 1cdb 3fbe
000002a0: c5f8 9dbe c44e 8bbe e6b9 383d d969 c0be
000002b0: 7889 0cbe 7244 35bd 943e 60be c45a 3bbe
000002c0: 6b9f c7bd 439a babe 14a9 63be d7fa bebd
000002d0: 4944 56be e743 7dbe b49d 6abe 5dff 2cbe
000002e0: f0fd 89be 340d 59be 1136 ccbd 9ab5 4bbe
000002f0: 6376 ebbc 8f37 47be 43f8 49bd 78d3 7abd
00000300: 795e 69be 6ddd 273b 1b69 a8be 351d a1bd
00000310: a060 0dbd 643c 89be ed03 7ebd 8c0f 8ebd
00000320: d8c9 debe ff3a 8cbe b2c1 2f3d 639c 8ebe
00000330: a4fb 3abe 6188 84bb 77a4 febd 1893 8dbe
00000340: c72e 383e 96b2 03be a7fe 6ebe 135e 2b3d
00000350: c490 4fbe 1a14 4abe 352c e43d 581d 18be
00000360: dee7 303c bc72 aabb e4bd f9bd 1f4c c8be
00000370: 3104 433c 3190 67be b542 96be 439d 43bd
00000380: 419f 2ebe a16e 55be 7331 013d 536d 8dbe
00000390: cf94 86be 7b2e e1bc a20f d8bd 542b 8ebe
000003a0: 08ed ea3d 285c e6bd 1d1c c9be fdf1 f9bd
000003b0: 138f dfbd c289 c6be 92bd 0dba 2ad0 11be
000003c0: e458 7dbe dc3b efbc 18d7 82be 117a b1be
000003d0: 206c 00be 600a a0be 58a0 88be af0e 18be
000003e0: d6c0 81be f48d a8be 3308 3dba 6fca 47be
000003f0: 65f3 8cbe 3338 ccbc 6c52 4cbe 596e 40be
-0.30445436 -0.4232158 -0.39891508 -0.12414614 -0.3428428 -0.3672615 -0.1817282 -0.43125588
-0.51733094 -0.16923672 -0.29739588 -0.113271795 -0.28738007 -0.14005357 -0.28879118 -0.15646893
-0.10109555 -0.15874206 -0.16359131 -0.15882528 -0.23731543 -0.14664663 -0.13924313 -0.080815025
-0.19026631 -0.20716737 0.007801433 -0.2594854 -0.29764292 -0.123890795 -0.26992786 -0.29162496
-0.046906263 -0.21205 -0.30066422 0.043805514 -0.3741925 -0.2468458 -0.037322152 -0.07756713
-0.24666117 -0.31646425 -0.2967198 -0.14687638 -0.20216139 -0.18306287 -0.31098422 -0.32565835
-0.07615677 -0.17923279 -0.3886259 0.02711173 -0.22868522 -0.11699755 0.27455148 -0.013303368
-0.15060909 0.15344256 0.08884126 -0.33880922 -0.07074174 -0.05522799 -0.19674118 0.025190253
-0.16066478 -0.31006885 -0.62520206 -0.5546948 -0.0958742 -0.73044586 -0.36210507 0.04195453
-0.7219382 -0.40188855 0.15656519 -0.7690048 -0.54687554 -0.01360847 -0.3641164 -0.32527134
0.107977666 -0.5638787 -0.31187743 0.0116774645 -0.714827 -0.3169819 -0.052294143 -0.69864154
-0.29036254 0.13082245 -0.47847193 -0.31055307 -0.14904611 -0.5011271 -0.14862333 -0.1144347
-0.29064685 -0.33504903 -0.17705667 -0.3898286 -0.118725374 -0.1992038 0.010619275 -0.31412613
-0.0800924 0.14042322 -0.009338092 -0.114398405 -0.14684209 -0.15719996 -0.1319466 -0.02343203
-0.17932874 -0.21976377 -0.6204922 -0.059717275 -0.06386805 -0.23233539 -0.116620585 -0.24126832
-0.32110167 -0.27839208 -0.08611361 -0.103949696 -0.3628137 -0.111057974 -0.47499543 -0.29485026
-0.07513697 -0.002775883 -0.4088703 -0.1705797 -0.11030067 -0.40061483 -0.25230289 -0.30926862
-0.15995404 -0.2049316 -0.41184443 -0.08352099 -0.14678825 0.13795114 -0.4116334 -0.23979045
0.056564704 -0.38351297 -0.18014352 -0.062522605 -0.18950221 -0.31979024 0.009673404 -0.36795434
-0.2905146 -0.28698465 -0.040555686 0.020751594 -0.13061304 -0.19790812 0.18045765 -0.29291937
0.048349146 0.10130526 -0.32062337 -0.22652945 -0.011325236 -0.35272312 -0.23146038 -0.18735927
-0.3085386 -0.2720853 0.04509916 -0.37580755 -0.13724315 -0.044254728 -0.21898872 -0.18296343
-0.097472034 -0.36445817 -0.22232467 -0.09325188 -0.20924486 -0.24732934 -0.22911721 -0.16894288
-0.2695155 -0.21196443 -0.0997125 -0.19893494 -0.028742975 -0.19454788 -0.049309026 -0.06123683
-0.22789945 0.0025614158 -0.3289269 -0.07866899 -0.034515977 -0.26803887 -0.062015463 -0.06936559
-0.4351337 -0.2738876 0.04290933 -0.2785369 -0.18260056 -0.004044578 -0.12433713 -0.27651286
0.17986594 -0.12861094 -0.2333933 0.041837763 -0.20270067 -0.1973423 0.11141244 -0.14854944
0.010797469 -0.0052016657 -0.12194422 -0.39120576 0.011902855 -0.22613598 -0.29347768 -0.0477574
-0.17052938 -0.20842983 0.0315413 -0.2762247 -0.26285407 -0.027487984 -0.10549857 -0.27767432
0.114709914 -0.11248046 -0.3927926 -0.12204359 -0.10915961 -0.38776976 -0.00054069713 -0.14239565
-0.2474094 -0.029203348 -0.25554729 -0.34663442 -0.12541246 -0.31257915 -0.26684833 -0.14849351
-0.25342435 -0.32920802 -0.00072109996 -0.19510816 -0.27529445 -0.024929142 -0.19953316 -0.18792094

lstm.weight_hh_l0_reverse f4 [256, 64]
00000000: 41b8 8ebe 674b 2b3e 0471 54be a10f 47be
00000010: e7c7 d83b ec22 32bd d8fa d8be 7271 b43d
00000020: 717a 02be d019 003e 65c7 f8bc 82a9 2a3e
00000030: f111 fb3d d27e 18be 8d8a 3abb d979 883e
00000040: b920 963e fe05 c2bd 44e5 68bc 7542 523e
00000050: a9e4 4c3d 7db7 373d 4562 2dbe 5908 143d
00000060: 583e dc3d fd2d 85bc 418a 863e c837 c6bd
00000070: 8f38 2fbd 7014 b3bd 4486 f53d 69e8 813d
00000080: d89b 01bf b36b a83d d208 80be 86ee 953d
00000090: 1823 853d 3d94 e5bd 9e53 f6bd 6208 bfbd
000000a0: 1ed9 b93e a9de 183d a4dd 02bd 39ef cf3d
000000b0: 2eca 16be 1012 e4bc 0aca 72be b016 343d
000000c0: 6e7b c2be 5f49 c53d 2e38 963e 9dc3 433e
000000d0: 5d88 8e3e 9e19 723e dc4e 83bd c0bf 4e3e
000000e0: 8bd5 14bf d9fb a9bc 2134 43be 2ac8 81be
000000f0: b680 edbe b0f4 6b3e 0eaf 163f abbb 90be
00000100: 6f18 203d 12bc 92be e9cd 8a3e d82e ecbc
00000110: 28bc 31be b55a cfbd 67a8 eabe 8c66 08bd
00000120: 8d4b 463d 519c 01bd 3022 7f3d 561d 0b3d
00000130: a891 b9be aa22 9cbc 2ea2 50bc 0832 f03e
00000140: 8252 ed3e e514 c5be fd02 b4bd 0291 6bbe
00000150: f3d2 14be 81c0 75bd bcba d0bc a4cd 913e
00000160: 5bf9 1dbe 5d4b c8bd e3ae 103e 5d59 29be
00000170: 2064 a33d be53 b6be 93dd 943d 05eb c73e
00000180: 2d37 53be 3e4f 98be ed8e 06bd 86a2 a2be
00000190: 7525 03be beb4 383e 70be 943d 2445 86bd
000001a0: 3c67 043f 51dc 283e 5437 bebd b696 febd
000001b0: f07d 22be a2d1 0e3f 752c dabe 70a8 2cbe
000001c0: 2f98 d2be 2499 883a 7785 d33e e220 893c
000001d0: 4d11 8d3d 2234 c63d 20a5 e1bd 86ec 603d
000001e0: 66e5 24bf 7ecd 053e fa67 03be 67f2 c33d
000001f0: e40f aabe 6251 2a3f a22f c43e 0522 30be
00000200: 8b33 c1bd 3917 5dbd e339 67be 7ce7 833d
00000210: bcfa 323e 4e75 07be f216 a0bd f612 03bd
00000220: 18ed a33d 3c19 193d 5c31 3c3d 420a 2d3e
00000230: 6389 503e bbac dd3d 81ae afbd 6581 06bd
00000240: 3bda 063e d171 b13e 6736 15bd a3c0 93bd
00000250: 8520 e83d 68e1 4b3d f271 a6be 4ba4 61be
00000260: 5c3f cfbc f4c7 263c a048 72bd e603 12be
00000270: 5153 8cbd 2f80 82bb 503b 2bbd 51e8 33be
00000280: 0fd2 7dbe 2f5e a33c 015c 43be 5643 cf3e
00000290: 5442 523d 580f c43c 6479 c3bd 0e61 5cbe
000002a0: 944b bf3c 2f45 2ebe e2d9 8f3e e17e d13d
000002b0: 1368 bdbd 3f53 08be bc55 d13d 69f7 2dbe
000002c0: dc27 c43d c961 d3bc f8d4 b63e aec1 5e3e
000002d0: f73e 693d 81fc b73e 9f14 82be 27d8 803d
000002e0: 613d fbbd 2e1d fdbd 9226 76be 3229 9abe
000002f0: 22f4 5d3e 1922 32be 33ce 35bd 8b92 65be
00000300: 8118 16be a698 793e d2cf 30be aa57 d63d
00000310: c936 a33d e66c 04be b022 a4be c115 123e
00000320: 3af2 8ebd 8f67 1b3e 7021 b7bd ffed ac3e
00000330: 799d e63d 957d 303e a51b 1f3d fab7 2f3e
00000340: e7d1 56bb 81b0 963d efc9 3e3e 5a73 e0be
00000350: 22f1 2a3c 5625 643e 0cc9 86be bb99 50be
00000360: 8364 1ebe 2a70 553e 6b24 3e3d 5dfa 8abc
00000370: 7cd5 d5bd 5c18 723d f5c7 443e e3a8 58be
00000380: 5b48 94be 7b85 f03d f698 e33a 741e c13d
00000390: 309c c0bc 5617 e13d 1208 c1bd 3f69 eebd
000003a0: 20ad 073e e61c 9dbe b58b 433e 91ae 62bb
000003b0: 23f8 00bc fa0d 0dbe 897f 33be 2fc7 44be
000003c0: 709b 00be 87f8 103e fe3f 633e e0c9 be3e
000003d0: bbd6 e73c 1a3c a23e 3453 94be 6f10 d83d
000003e0: 3154 01bd 9207 2a3c 7718 4ebe e831 0dbf
000003f0: ec4d 3a3e b718 bbbe 73b8 5cbd b7c0 49be
-0.2787495 0.16727982 -0.20746237 -0.19439556 0.006615627 -0.043490335 -0.4237888 0.088107005
-0.1274202 0.12509847 -0.030368516 0.16666225 0.122592814 -0.14892128 -0.002846393 0.26655462
0.2932184 -0.09473799 -0.014214817 0.20533164 0.050022755 0.044852722 -0.16932018 0.036140773
0.107540786 -0.01625728 0.26277354 -0.09678608 -0.042778548 -0.087441325 0.119885 0.06343157
-0.50628424 0.08223667 -0.2500673 0.07320885 0.06500834 -0.11209915 -0.120276675 -0.09327771
0.3629846 0.03732172 -0.031949654 0.1015305 -0.14725563 -0.027840644 -0.23709884 0.04396695
-0.37984794 0.09633135 0.29339737 0.1911759 0.27838412 0.23642585 -0.064115256 0.20190334
-0.5813834 -0.020749973 -0.19062854 -0.25348026 -0.4638726 0.2304256 0.5886086 -0.2826818
0.0390858 -0.2865911 0.27110222 -0.02883093 -0.17356932 -0.10124723 -0.45831606 -0.03330092
0.048411895 -0.031643216 0.062288463 0.033963524 -0.3624394 -0.019059498 -0.012733979 0.4691317
0.4635201 -0.38492504 -0.087896325 -0.23004535 -0.14533596 -0.05999804 -0.025479667 0.28477204
-0.15427153 -0.097799994 0.14129214 -0.16537996 0.07978082 -0.35610765 0.072688244 0.39046493
-0.20626517 -0.29747957 -0.03285115 -0.3176462 -0.12807257 0.18037698 0.072628856 -0.06556156
0.51720023 0.16490294 -0.09287897 -0.124310896 -0.15868354 0.55788624 -0.42612043 -0.16861129
-0.41131732 0.0010421616 0.41312763 0.016739313 0.068880655 0.09677912 -0.11017823 0.054913066
-0.64412534 0.1306667 -0.12832633 0.09567719 -0.3321525 0.6653043 0.3831759 -0.17200477
-0.09433659 -0.053977225 -0.22580676 0.064406365 0.1747846 -0.13228342 -0.078168765 -0.032000504
0.080042064 0.03737758 0.04594551 0.16898444 0.20364909 0.10823961 -0.08578206 -0.032838244
0.13169186 0.34657148 -0.036428835 -0.07214477 0.113343276 0.04977551 -0.32508808 -0.22035329
-0.025298767 0.0101795085 -0.05915129 -0.142593 -0.06851829 -0.003982566 -0.04180461 -0.1756909
-0.24787162 0.019942371 -0.19078065 0.4048106 0.051332787 0.023933098 -0.09544638 -0.21521398
0.023351468 -0.17018579 0.2809592 0.10229278 -0.09248366 -0.13313006 0.10221431 -0.1698891
0.09577915 -0.025803464 0.35709357 0.2175357 0.056944814 0.35934833 -0.25406358 0.06291228
-0.122675665 -0.12359081 -0.24038151 -0.30109555 0.2167516 -0.1739582 -0.0443861 -0.22419183
-0.14657785 0.24374637 -0.17266777 0.10465939 0.07969434 -0.12932166 -0.32057714 0.14266111
-0.06979795 0.15176223 -0.089419246 0.33775327 0.11260504 0.17235406 0.038844723 0.17160025
-0.003277892 0.07357884 0.18631719 -0.43838006 0.010433467 0.22279868 -0.26325262 -0.20371144
-0.1546803 0.20843568 0.04642145 -0.016965086 -0.104411095 0.059105262 0.19216903 -0.21158175
-0.28961453 0.117442094 0.0017364311 0.094296366 -0.023511976 0.10990779 -0.094253674 -0.11641168
0.13249636 -0.3068611 0.19096263 -0.0034588913 -0.00787166 -0.13774863 -0.1752912 -0.19216608
-0.12559295 0.14157306 0.2219238 0.37263393 0.028300634 0.3168648 -0.2896973 0.105500095
-0.03157443 0.010377781 -0.2012652 -0.55154276 0.18193787 -0.36542293 -0.053886842 -0.19702421

lstm.bias_ih_l0_reverse f4 [256]
00000000: 92ae 68be 235b 673c fcc8 05be c327 6ebe
00000010: 0e48 67bd 1e2b af3c 3f54 043e 1adb c1be
00000020: 9692 a9be e379 e2be d4d2 e2be 75c0 253d
00000030: a291 9ebe 470c c0be 91c1 3cbe 08fa 13be
00000040: b4fd 26be b06d 91bd 3d16 fabd 01e6 5d3e
00000050: cd48 0dbe 8ad5 25be d756 28be 6872 273d
00000060: 4ce7 893b d71b 59bd b424 6abe f643 a53d
00000070: ad71 adbd 2065 1bbe c930 31be 4aea 29be
00000080: 60f4 23be da2c 7dbe 1c6a 8c3e e4a5 0bbe
00000090: 4642 6fbe 5064 073d d0e3 6abd fedb 6e3d
000000a0: 1bf0 c0be 4f75 1cbe f9c1 a9bd 0ed5 a5be
000000b0: aa7f 2c3e 1ce5 73be 59e1 363e ddd7 33be
000000c0: 061a b2bd 554a a9bd 88b6 40bc 585f 963c
000000d0: 5feb 42be f2cc 2fbe 03e9 b5bd 06e8 19be
000000e0: 8302 13bb 3142 59be 0024 24be 61cc 77bb
000000f0: e0c5 25bd 373d 06be 7b64 2bbe eba4 afba
00000100: 12cd 9cbe 7d79 aabe 254b bdbd 3e23 2cbe
00000110: b34e 8abd aee4 b6bc d6d5 00be 256b 48be
00000120: 5cb0 83be 91ed d3be c769 ccbe 821e 813e
00000130: 0a75 18be 5fa5 e1bd fd62 30be 9d9c 26be
00000140: 24c4 e7bb 44da e0bd 3287 62bd 1305 9abd
00000150: 8cc9 0ebd a0ad 47be ae87 9ebd 1c4a 223e
00000160: 1e27 c6be 2b7e 5dbd 67d3 3cbe 73f1 a53d
00000170: a610 49be db14 afbd 18ea 3cbe 267f 45be
00000180: 7bbf 9e3d f161 57be 2e4d e2bd cd46 71be
00000190: a00d a5bd 082c 66be 8328 1fbe 51ea b03d
000001a0: a2f5 45be c881 94be d32b 36be d042 51be
000001b0: f940 913d 712a 9cbe e85c 9f3d 38ed 35be
000001c0: b56f 08be ca20 15be 6640 253e 7d18 73be
000001d0: 016d f8bd 8b37 c9be c1d2 093e 48b6 13bf
000001e0: 97d0 e53e 99a1 43be c5f6 bebe d43f 1abe
000001f0: 7b9f cc3e d45b 29be b1e1 05be 0d71 38be
00000200: 9f61 7e3e 3a00 a93e 7254 5a3e 13c2 26be
00000210: f2d8 fbbd 8a5a 293e f0f0 6d3e 6a61 8ebe
00000220: f61d 193e 3b93 24be 2a7e 00bc 505b 00bf
00000230: 1f9a 7d3d defb f1bd 9dea 5e3d a748 68be
00000240: 4cbc 9abe 3a8c 3d3d a2a3 61bd b102 2fbd
00000250: 4675 48be c744 2dbd cdce 6dbd 0eba d03e
00000260: 2668 aebe 56fe 48bd d94b 963d 9479 46be
00000270: e316 b63d b5c9 a5be 346d 9bbe d60a f6bd
00000280: e5b3 193e 7e32 d6bc 81b5 173f f057 3b3d
00000290: ef51 58be db09 2abe 4890 35be e7dd 9d3e
000002a0: cd7d 0a3e 205d 363e 3f2c 45be a7ab 733e
000002b0: ead0 103f 33e6 903b cf19 003e a348 51bc
000002c0: feac 1dbd 2793 e8bd ca49 63be 6a7d 893d
000002d0: ef20 b7bd 7269 0cbf 0ddc 1fbd 3d69 c4bd
000002e0: dac4 983d de6a 2ebe f89e a03e c4b2 0c3f
000002f0: a974 4d3c 6d11 793e 2d3f 67be 6c8c d03d
00000300: 2cb8 c3be 1215 63be b0c4 7abe 67d7 33be
00000310: 5bf4 5abe 21f0 5bbd 3d32 94bd 9f6a d8be
00000320: a8ec 51be 4855 e0be 5ca8 bbbe 75ce 96be
00000330: c1f4 0bbf 5db8 c7bd 22ff a4be c7a5 8cbe
00000340: 0af1 85be 3b9d b43d 32d0 80be 1f49 94be
00000350: 5cbd 45bd fd58 a1be faec b43d e87a 23be
00000360: d7ff 0cbe 24d2 58be 3802 e3be 31e3 a7bb
00000370: 0043 37be edda 75be 7e1e dabd f5fa b0be
00000380: c89c 2dbe 3dfc 8bbe 346e 54be 5b8e 2cbd
00000390: ee20 69be a709 44be 95c3 4bbe f538 85bd
000003a0: 5cdb bfbe 66e6 3cbe d744 a7bc add5 7bbe
000003b0: 3f0f 0cbe aea9 90be 3df5 833c 0fec a0bd
000003c0: aa73 9cbd f61e b1bd 6bfa 543e 62da f13c
000003d0: 3afe 2bbe be73 9fbc 7fa1 dabc 1ed2 ccbe
000003e0: 13d1 8c3d 8315 59be 1169 72be 3d56 44be
000003f0: 4444 5b3d 35f7 38bd b275 a63d eec6 e7bd
-0.22722843 0.01412085 -0.1306495 -0.23257355 -0.0564652 0.021382865 0.12922762 -0.37862474
-0.3311965 -0.44233617 -0.44301474 0.040466744 -0.30970484 -0.37509367 -0.18433215 -0.14450848
-0.16307718 -0.07100999 -0.12211273 0.21669771 -0.13797303 -0.1619474 -0.16439377 0.04088059
0.004208481 -0.053005066 -0.22865564 0.08069603 -0.084689476 -0.15175295 -0.17303766 -0.1659328
-0.1601119 -0.24724141 0.27424705 -0.13637501 -0.23365125 0.03305465 -0.057346165 0.05831527
-0.37683186 -0.15279125 -0.082889505 -0.3238911 0.16845575 -0.23817867 0.17859401 -0.17562814
-0.0869637 -0.08266131 -0.011762269 0.01835601 -0.190351 -0.17168024 -0.08882334 -0.15029916
-0.0022431917 -0.21216656 -0.16029358 -0.0037811028 -0.04047191 -0.13109289 -0.16737549 -0.001340059
-0.30625206 -0.33295813 -0.09242848 -0.16810319 -0.06753292 -0.02232584 -0.12581572 -0.19572122
-0.2572049 -0.41392186 -0.39924452 0.25218588 -0.14888397 -0.1101787 -0.17225261 -0.1627068
-0.0070729423 -0.10979131 -0.055304714 -0.07520499 -0.03486018 -0.19499826 -0.077407226 0.15848583
-0.3870172 -0.0540754 -0.18440019 0.081026934 -0.19635257 -0.085489 -0.18448675 -0.19286785
0.07751366 -0.21033455 -0.11049877 -0.23562165 -0.080592394 -0.22477734 -0.15542798 0.08638442
-0.19331983 -0.29005265 -0.17790155 -0.20435643 0.07092471 -0.3050113 0.07781392 -0.17766273
-0.13323863 -0.1456329 0.16137847 -0.2373981 -0.12130166 -0.39300188 0.13459302 -0.57700014
0.44885704 -0.19104613 -0.37297645 -0.15063411 0.39965424 -0.16538936 -0.13074376 -0.18011875
0.24841927 0.33007985 0.21321276 -0.16284971 -0.122972384 0.16538444 0.23236442 -0.27808696
0.14952835 -0.16071789 -0.00784258 -0.5013933 0.06191456 -0.11815618 0.054422963 -0.22683965
-0.30221784 0.04627631 -0.055087693 -0.042727176 -0.19575986 -0.04230192 -0.05805855 0.40766948
-0.34063834 -0.04907068 0.073386855 -0.19382316 0.08891084 -0.32380453 -0.30356753 -0.120137855
0.1501003 -0.026147123 0.5926133 0.04573816 -0.21125005 -0.16605322 -0.1773082 0.3083336
0.13524552 0.17808962 -0.1925516 0.23795949 0.5656878 0.004421973 0.12509845 -0.012773666
-0.038495056 -0.11356192 -0.22196117 0.06713374 -0.089418285 -0.54848397 -0.039028216 -0.09590385
0.074594215 -0.17032954 0.31371284 0.54960275 0.012540021 0.24323054 -0.22582693 0.10183033
-0.3822645 -0.22176006 -0.24489093 -0.17562638 -0.21382277 -0.0536958 -0.07236145 -0.42268845
-0.20500433 -0.43815064 -0.36651886 -0.2945439 -0.5467034 -0.097519614 -0.322259 -0.27470228
-0.2616046 0.08819052 -0.2515884 -0.28962037 -0.04827629 -0.31513205 0.08834262 -0.15964854
-0.1376947 -0.21173912 -0.4433763 -0.005123519 -0.17896652 -0.24009295 -0.10650347 -0.34566465
-0.16954339 -0.2734088 -0.20745164 -0.04212795 -0.22766468 -0.19144307 -0.19898827 -0.06505004
-0.37472045 -0.18447265 -0.020418568 -0.2459323 -0.13677691 -0.28254455 0.01610815 -0.078575246
-0.07639249 -0.086484835 0.20798652 0.029523078 -0.16796198 -0.01946437 -0.026688335 -0.40004057
0.06875815 -0.21199612 -0.23672892 -0.19173522 0.0535319 -0.04515763 0.08127917 -0.1131724

lstm.bias_hh_l0_reverse f4 [256]
00000000: 0bdf 68be 1cdf ccbd ca7d 1dbe f7c2 3ebe
00000010: dcda 44bc 31ce 77bc 08d5 53bd 80e6 49be
00000020: a28c abbe 30b6 8cbe 0413 f3be 996a 833e
00000030: 859c 91be c97b 3fbe be2c 60be 44f9 25be
00000040: 954d 59be 0d1f 8e3c 2a01 7bbd 3483 0b3e
00000050: c507 49bd 2a59 b3be 75eb 0e3c ac40 5dbd
00000060: 415f 893d 9352 90be bf75 90be 9b5a c03d
00000070: f96b 32be 4a77 2cbd c9c6 5ebe 2f02 2bbe
00000080: 57f5 86be c30b 8cbe 75b9 d83d ed27 0ebe
00000090: 098c f2bc 7166 eabd d2d7 06be 9dc3 0cbe
000000a0: 2329 d3be 2962 0dbd 0edf 873d acd0 c3be
000000b0: d4bc 243e 034e 80be 01ae 323e c065 70be
000000c0: d194 b23c 2821 93be ba90 2f3d 2519 3bbe
000000d0: f78f 2ebd 1adc ecbb c1ab 42bd 4f11 4ebe
000000e0: 2ba2 01be 3aa6 a6bd 7c65 e3bd cd67 033b
000000f0: 54dd 433e 6ba3 303b 6186 e6bd 6df2 07bd
00000100: 9687 70be 09fe b9be 6eca 23be 95df febd
00000110: d705 42be dfdc 3ebe afaf 9dbd f988 53be
00000120: c847 0abe 3f13 dbbe 228e cabe 38c0 283e
00000130: da56 76bd cd6b 1fbe d46b 2abe 343d 93be
00000140: 452a 41be f66d 71be 6a38 f0bb 801a 33bd
00000150: 1353 63ba d279 abbe e653 853d 7b21 573e
00000160: 6009 d6be 47ba 56bd f679 7bbe 2657 6e3e
00000170: 9e7a 38be b62f 53be f4ac 45be 167e 99be
00000180: 2df5 c63d 0469 97bc 802f 22bd 8696 65be
00000190: 673d 963c 2415 57bd b55c 33be c9a4 fc3d
000001a0: ded4 7ebe 59f1 71be 3a94 9ebe d257 923a
000001b0: b591 fdbd fb1f 8bbe 88e1 cabd c8e4 e6bd
000001c0: 6341 afbe 553b a3be 59ff 3e3e 9720 f6bd
000001d0: 07d9 af3c f335 c2be 3927 513e c508 b8be
000001e0: 2dbf 983e c7f8 4fbe 2081 56be b459 6dbe
000001f0: 6efd d03e 2e7e 8dbe fbcd 36bc 5519 73be
00000200: c8fb 843d 0401 b43e 5232 a33d 1370 99be
00000210: 54dd 84bd 62f1 72bc eca9 d73d 0cd8 9abd
00000220: ddc9 00bd 78b6 fcbd 3a6f 6a3d d42f 1bbf
00000230: 45f6 ad3d 1e4c 69bd 5210 0bbe 6acb 29be
00000240: dc7e a1be 2365 b33d e794 8f3c 6b89 cb3c
00000250: 9796 cbbd a6e8 7bbb a66d 003e 019b bd3e
00000260: 8f13 03bf 1dab 88bd 8802 82bc 5341 0ebd
00000270: 45b7 0e3e bea5 7abe 87bf 8abe f56e 4ebd
00000280: 49c7 303e dbc0 3f3b 5368 253f 1f02 af3a
00000290: 5f30 c33c c0ef 14be e613 d8bd eb46 f93d
000002a0: 8e88 043c 6795 a63e 590e 51be 9a7f 513e
000002b0: 0354 e33e 7d2f 413d 1f12 38bc 9e8c c4bc
000002c0: afe0 103e ab76 e9bd ed2d 24be c3c7 c8bb
000002d0: 048c 9dbe dcb7 02bf f3de 063e 62b6 24be
000002e0: b32b 1dbe 89a3 b2bd 887f 713e 2a05 103f
000002f0: ebee ffbd a83c 8c3e 70de 61be 1888 e23c
00000300: c686 bdbe 3325 33be 1813 f3bd e851 1cbe
00000310: d9f7 08be 6cef 09be 7787 88bd 2b6d c3be
00000320: 1e6b bfbe 262a f5be 9b9a aebe 7fb6 c6be
00000330: ee06 efbe f3aa 38be 83e1 7abe dfed cdbd
00000340: b557 34bd d567 063d 6fce b4bc ab06 9fbe
00000350: f508 1bbe eb4a a0be f8b6 a63c 60b1 08be
00000360: cf3a a7bd 7b8c 11be 4a66 e6be 79e0 433d
00000370: a010 39be 1816 a6bd 810a 3dbe 6e28 90be
00000380: 085a 0fbe de56 9cbe 5760 73be 2e23 5ebd
00000390: 8659 7cbb ae61 edbc 8f77 2fbe c3f2 96bd
000003a0: d27b 5abe 8453 cfbd bc45 053b e8ae 48be
000003b0: a448 11bd 5f58 3abe 368a d63c d326 90be
000003c0: 149d 40bd ec0b 26be c369 e2bb 8dee 73bc
000003d0: efa5 84be 113c 0cbe 63c6 51be 460d 50be
000003e0: b566 bc3d f88e ebbd 5280 8bbe add5 05be
000003f0: e0bb 8a3b 45b9 2abd d839 b1bd 1e5c 83bd
-0.22741334 -0.10003492 -0.15380016 -0.1862906 -0.012015071 -0.015124843 -0.051716834 -0.19716835
-0.33505732 -0.27482748 -0.47475445 0.25667265 -0.28439727 -0.18699564 -0.21892068 -0.16208369
-0.21221001 0.01734879 -0.061280407 0.13624269 -0.049079675 -0.35028964 0.0087231295 -0.054016754
0.06707621 -0.28188 -0.28214833 0.093922816 -0.17424001 -0.04210595 -0.21755518 -0.16700052
-0.26359054 -0.27352723 0.10582248 -0.13882418 -0.02960779 -0.114453204 -0.13168266 -0.13746496
-0.41242322 -0.03451744 0.06634341 -0.38245142 0.16087657 -0.25059518 0.1744919 -0.23476315
0.021799477 -0.28736234 0.04286263 -0.1827131 -0.042617764 -0.0072283866 -0.04752708 -0.2012379
-0.12659518 -0.08137174 -0.11103341 0.0020050884 0.19127399 0.0026952873 -0.112560995 -0.03319018
-0.23489222 -0.36326626 -0.1599519 -0.12444989 -0.1894754 -0.18638943 -0.076995246 -0.2065772
-0.13503945 -0.4278812 -0.39561564 0.16479576 -0.06014142 -0.15568466 -0.16642696 -0.28757632
-0.18863781 -0.23577103 -0.007330944 -0.043726444 -0.0008671742 -0.3349138 0.06510143 0.21008866
-0.41804028 -0.05242374 -0.24558243 0.23275432 -0.18015525 -0.20623669 -0.19304258 -0.29979008
0.09714732 -0.018482693 -0.03959608 -0.22420701 0.018339826 -0.052510396 -0.17515834 0.12336118
-0.2488589 -0.23627223 -0.30972463 0.0011165089 -0.12381307 -0.27172837 -0.09906298 -0.11274105
-0.34229574 -0.31881204 0.18652095 -0.12017935 0.021465791 -0.37931785 0.20425119 -0.3594419
0.29833356 -0.20309745 -0.20947695 -0.2317875 0.40818352 -0.2763533 -0.011157508 -0.23740132
0.06493336 0.35157025 0.07968582 -0.29968318 -0.064875275 -0.014828058 0.10530457 -0.07560739
-0.03144251 -0.12339491 0.05723498 -0.60619855 0.08494238 -0.056957357 -0.13580444 -0.16581503
-0.315421 0.08759525 0.017527057 0.0248458 -0.09940832 -0.003843823 0.12541828 0.3703232
-0.5120172 -0.06673262 -0.015870348 -0.034730267 0.139371 -0.24477288 -0.2709925 -0.050398786
0.17263521 0.0029259238 0.6461231 0.0013352073 0.023826776 -0.14544582 -0.1055067 0.1217173
0.008089198 0.3253586 -0.2041563 0.20458832 0.44400033 0.04716443 -0.011234789 -0.023992833
0.1414821 -0.11399587 -0.16033144 -0.006127329 -0.30770886 -0.510618 0.13170986 -0.16085199
-0.15348701 -0.08722598 0.23583806 0.5625788 -0.12496742 0.27390027 -0.2205751 0.027652785
-0.37016886 -0.17494659 -0.11868876 -0.1526562 -0.13375796 -0.13470238 -0.06666463 -0.38169226
-0.3738641 -0.4788372 -0.3410233 -0.38811108 -0.46684974 -0.18033962 -0.24500088 -0.10055136
-0.044028956 0.032813866 -0.022071091 -0.31059775 -0.15140136 -0.31307158 0.020350918 -0.13348913
-0.08165514 -0.14213745 -0.44999915 0.047821496 -0.18072748 -0.08109683 -0.18461038 -0.28155845
-0.13999188 -0.30535024 -0.2376722 -0.05423277 -0.0038505509 -0.028977241 -0.17135452 -0.07370522
-0.21336296 -0.10123351 0.0020335754 -0.19597971 -0.035469666 -0.18197773 0.026188951 -0.2815462
-0.0470248 -0.16215485 -0.0069095804 -0.014888418 -0.25907847 -0.13694789 -0.20485835 -0.20317563
0.09199277 -0.115018785 -0.27246338 -0.13069792 0.004233822 -0.041680593 -0.08653611 -0.06414054
