LSTM/best_model.pth (torch, 608546 bytes, 17 tensors)

lstm.weight_ih_l0 f4 [256, 34]
0	0xbe2dfeac	-0.16991681
1	0x3c36e8fd	0.011163947
2	0xbda8e283	-0.08246329
3	0xbd34dee5	-0.04415788
4	0xbdfca7c9	-0.1233669
5	0xbce3b936	-0.027798276
6	0x3c715077	0.014728657
7	0x3d988d48	0.07448822
8	0x3cfc4e19	0.030798959
9	0xbd1789d8	-0.036996692
10	0x3da25bd1	0.07927669
11	0x3e10fc7d	0.14158817
12	0x3e1c9e63	0.15294795
13	0x3e4b431b	0.19849817
14	0x3de6018c	0.11230764
15	0x3ac4157c	0.0014960016
16	0x3d482373	0.048861932
17	0x3e6afc0c	0.22947711
18	0xbd795851	-0.06087524
19	0x3d187e13	0.03722961
20	0x3d4829e4	0.048868075
21	0x3dc4d021	0.0961001
22	0x3df77045	0.120819606
23	0x3bebbb88	0.0071939863
24	0x3d9e25cd	0.07722054
25	0x3d887cd1	0.06664432
26	0x3e1dd84a	0.15414539
27	0xbc563ca1	-0.0130759785
28	0xbc18e61a	-0.009332204
29	0x3ca58be4	0.020208307
30	0x3de5209e	0.11187862
31	0x3cad125e	0.021126922
32	0x3db78445	0.08960775
33	0x3d91aecc	0.07113418
34	0xbdbe84ce	-0.09302674
35	0xbda2cbec	-0.07949051
36	0x3dc0be6b	0.09411319
37	0xbc54b0d0	-0.0129816085
38	0x3d940508	0.07227522
39	0x3d9b70b3	0.07589855
40	0xbc2684d1	-0.010163502
41	0x3ddfb122	0.10922457
42	0x3e025bba	0.12730303
43	0xbdb08ffe	-0.08621214
44	0xbd71ca14	-0.059030607
45	0xbddc22a7	-0.10748797
46	0x3e23e5ed	0.16005678
47	0x3ddc9d72	0.10772218
48	0x3d3dea0d	0.046365786
49	0x3d0380b3	0.03210516
50	0x3e102c2f	0.14079355
51	0x3d317e76	0.043333493
52	0x3d850ecd	0.06496964
53	0x3d43805d	0.04772984
54	0xbd594fd8	-0.05305466
55	0xbde221ea	-0.11041625
56	0xbcad1f19	-0.021132993
57	0x3dbddba0	0.09270406
58	0x3c79bacc	0.01524229
59	0xbc904c40	-0.017614484
60	0x3c6b5494	0.014363427
61	0x3cade33f	0.021226523
62	0xbd52bbaf	-0.05144852
63	0x3df14ea7	0.1178258
64	0xbc68a264	-0.014198873
65	0x3db091ff	0.086215965
66	0xbd861de0	-0.06548667
67	0xbd7c8098	-0.061646074
68	0xbc92456b	-0.017855367
69	0x3de44c7e	0.11147402
70	0x3e238f52	0.15972641
71	0xbd53419d	-0.051576246
72	0x3dcc410d	0.09973345
73	0x3c3c67f9	0.011499398
74	0xbcba06f1	-0.022708388
75	0x3d89a5a3	0.06721046
76	0x3c4784c4	0.01217765
77	0x3e240786	0.16018495
78	0x3e0453a5	0.12922533
79	0x3d540939	0.051766608
80	0x3d8a0210	0.06738675
81	0xbd46d6ea	-0.0485448
82	0xbd678007	-0.05651858
83	0x3cd33e2d	0.025786484
84	0x3d301639	0.042989943
85	0x3d90e67b	0.07075211
86	0xbdb08b00	-0.08620262
87	0x3c3528f4	0.011057127
88	0x3d4849dc	0.048898563
89	0x3d96d568	0.07364923
90	0xbcf52a5b	-0.029927423
91	0xbca99381	-0.020700218
92	0xbcc4cfd5	-0.024024883
93	0x3e353b47	0.17698394
94	0xbcb501b6	-0.022095542
95	0x3d55822d	0.0521261
96	0xbc4cbcfe	-0.012496231
97	0x3d3f6481	0.046726707
98	0xbc3b94a9	-0.011449018
99	0x3e220430	0.1582191
100	0x3d8e7709	0.06956298
101	0x3e56b50e	0.20967504
102	0xbdfd02ab	-0.123540245
103	0x3d78d354	0.060748413
104	0xbe2b290d	-0.16714878
105	0x3cf8b004	0.030357368
106	0xbd706200	-0.05868721
107	0x3dbff3d3	0.09372678
108	0xbe123c0f	-0.14280723
109	0x3d3cb6d9	0.046072815
110	0xbca68c6b	-0.020330628
111	0xbe0da590	-0.13832688
112	0xbd0cefca	-0.03440837
113	0xbdfbe815	-0.123001255
114	0xbd8c5523	-0.06852176
115	0xbdd6eefd	-0.10494802
116	0xbd0dd3da	-0.034625866
117	0xbd8a285d	-0.0674598
118	0x3d2db8a0	0.0424124
119	0x3d3f3a48	0.04668644
120	0xbd7c1916	-0.06154736
121	0xbcf3f2fa	-0.029778946
122	0xbd59393e	-0.053033106
123	0x3dd1a784	0.10237029
124	0x3d215c82	0.039394863
125	0xbcb8009c	-0.022461228
126	0xba8cdfaf	-0.0010747815
127	0xbe4667e5	-0.1937557
128	0xbdc29fe7	-0.09503155
129	0xbe050c0c	-0.12992877
130	0xbd13fedf	-0.036131736
131	0x3d057194	0.03257902
132	0xbe505e9f	-0.20348595
133	0xbe2f5939	-0.1712388
134	0xbe666dd3	-0.22502832
135	0xbd918b62	-0.07106663
136	0xbdc67661	-0.09690548
137	0xbd7efe76	-0.06225439
138	0x3a51d538	0.00080044894
139	0x3dc55cb8	0.09636825
140	0x3de6c783	0.112685226
141	0x3d893ebe	0.0670142
142	0x3e4dd057	0.20099007
143	0x3e29a7ed	0.16567965
144	0x3e0adc13	0.13560514
145	0x3da52403	0.08063509
146	0x3c821b4c	0.015882157
147	0x3de98f1f	0.11404251
148	0x3e2b2d06	0.16716394
149	0xbc2feb4a	-0.01073725
150	0x3cf72e43	0.030173426
151	0x3db72a31	0.08943594
152	0xbc96d3ce	-0.018411543
153	0xbd148199	-0.036256406
154	0x3e271136	0.16315159
155	0x3db9bfce	0.09069787
156	0xbd66708f	-0.056259688
157	0x3caf848e	0.021425512
158	0x3e0c1c76	0.13682732
159	0x3e063632	0.13106611
160	0xbc5c1fb6	-0.013435295
161	0x3e107b8b	0.14109628
162	0x3dec04ae	0.1152433
163	0x3d99bde5	0.07506923
164	0xbd4b9ee3	-0.049712073
165	0x3e2a5bd9	0.166366
166	0x3dbe4e8f	0.092923276
167	0x3d4fc96a	0.050729193
168	0x3d0456fa	0.03230951
169	0xbb854721	-0.004067317
170	0x3e5fc034	0.21850663
171	0x3e475cbf	0.19468974
172	0x3d27bb8d	0.040950347
173	0x3dd25892	0.102708
174	0x3db3457f	0.0875349
175	0xbcceb769	-0.025233941
176	0x3d0a0223	0.033693444
177	0x3d094ba7	0.033519413
178	0x3de08e75	0.109646715
179	0xbca7ddc6	-0.020491492
180	0x3e871362	0.26381975
181	0x3dbcbb8f	0.092154615
182	0x3e392f50	0.18084455
183	0x3d176361	0.03696001
184	0x3ea592f9	0.32338694
185	0x3e4b1cad	0.19835158
186	0x3df81630	0.12113607
187	0xbd1193b7	-0.035541262
188	0x3e0da7d2	0.1383355
189	0x3e4a9770	0.19784331
190	0xbd89f51c	-0.06736204
191	0xbc8b4524	-0.017000742
192	0x3d08b5f0	0.033376634
193	0x3e388d0d	0.18022557
194	0x3e57e56c	0.21083611
195	0xbbb64d10	-0.005563386
196	0x3cf17acd	0.029477501
197	0x3c601567	0.013676978
198	0x3bd3bb6f	0.006461553
199	0x3e24c81f	0.16091965
200	0x3dbb4c3d	0.09145401
201	0x3dd93088	0.1060496
202	0xbcd4595e	-0.02592152
203	0x3dc8d5e9	0.09806425
204	0xbd62ab10	-0.05533892
205	0x3c60a93e	0.0137122255
206	0xbc8a4325	-0.01687772
207	0xbc6e7f50	-0.014556721
208	0xbd023ef8	-0.031798333
209	0x3d9970c0	0.074922085
210	0xbe124abb	-0.1428632
211	0xb90844d9	-0.00012995618
212	0x3df56fae	0.11984192
213	0x3b9fd868	0.0048780926
214	0x3d632278	0.055452794
215	0x3cf84254	0.030305065
216	0x3d8588ae	0.0652021
217	0x3df43d8b	0.11925801
218	0x3c86610b	0.016403696
219	0xbd6d14fd	-0.057881344
220	0xbdb73065	-0.089447774
221	0x3cf05879	0.029339062
222	0x3d3ee2be	0.046602957
223	0xbd583636	-0.052786075
224	0x3d84e5ec	0.064891666
225	0x3dc70949	0.09718568
226	0x3e04d76f	0.12972806
227	0x3e064b0d	0.13114567
228	0xbcda08ad	-0.026615465
229	0xbb8ed6c0	-0.0043590963
230	0x3e0aaf47	0.13543426
231	0x3d888500	0.06665993
232	0x3b224dd7	0.0024765634
233	0x3ce93f8f	0.02847269
234	0xbd9ba035	-0.075989164
235	0xbdacbcca	-0.08434446
236	0x3d17500d	0.036941577
237	0xbde901f9	-0.113773294
238	0xbdbc9c03	-0.092094444
239	0x3c9527fa	0.018207539
240	0x3b0ff1a6	0.0021964102
241	0xbd9c40a0	-0.07629514
242	0xbd9f9977	-0.07792943
243	0x3c430541	0.011903108
244	0xbb742abe	-0.0037256922
245	0x3d76a62f	0.06021708
246	0xbe11fddc	-0.14256996
247	0x3dcd4e3c	0.10024688
248	0x3ca9e808	0.020740524
249	0x3db86f9c	0.09005663
250	0xbc0cbafa	-0.008589501
251	0x3de41565	0.11136893
252	0x3c44b7e1	0.012006731
253	0x3e4f95ed	0.20272036
254	0x3d1620d1	0.03665239
255	0x3df549ee	0.119769916

lstm.weight_hh_l0 f4 [256, 64]
0	0xbd186f89	-0.037215743
1	0xbdee4e4c	-0.11636028
2	0xbdb8f4bb	-0.09031054
3	0x3d9fc046	0.07800345
4	0xbe0c6051	-0.13708617
5	0xbd3e4665	-0.046453852
6	0x3daf4a7b	0.08559128
7	0x3cd7d59d	0.026346976
8	0xbd3bc2bd	-0.045840014
9	0x3e2b9507	0.16756068
10	0xbce228d2	-0.027607355
11	0x3d92a303	0.07159998
12	0xbd129960	-0.0357908
13	0xbe00c418	-0.12574804
14	0x3d9e389c	0.07725641
15	0x3e446712	0.19179943
16	0x3cb21322	0.021737639
17	0xbcfdb14c	-0.03096833
18	0xbdaada11	-0.08342374
19	0xbd34db26	-0.04415431
20	0x3dd4c5dc	0.10389301
21	0x3e319cde	0.17344996
22	0xbcdf1aca	-0.027234454
23	0xbc9e206f	-0.019302575
24	0xbb6013fc	-0.00341916
25	0xbce99362	-0.02851266
26	0xbe18ad02	-0.14909747
27	0x3ce2dfa5	0.027694533
28	0x3d0c6500	0.03427601
29	0x3d937d90	0.072016835
30	0x3e377b72	0.17918184
31	0xbdbd9ef8	-0.092588365
32	0xbe7fe5f7	-0.24990068
33	0x3e5d1823	0.21591239
34	0x3dd5e9bb	0.10444971
35	0x3d823a1d	0.063587405
36	0x3e1d6a5e	0.15372607
37	0x3cbb35aa	0.022852737
38	0xbe0244af	-0.12721513
39	0xbd233bf9	-0.039852116
40	0x3d214abd	0.039377917
41	0xbcd35bfa	-0.025800694
42	0xbd297a6b	-0.041376512
43	0xbe225b89	-0.1585523
44	0x3da71164	0.08157614
45	0x3c9d2606	0.01918317
46	0xbd69e36c	-0.057101652
47	0x3c2e2392	0.010628598
48	0x3cc9138a	0.02454545
49	0xbd410284	-0.04712154
50	0x3e1c5bd6	0.15269408
51	0xbdf37121	-0.11886812
52	0xbe40f4d0	-0.18843389
53	0x3d263cfb	0.0405855
54	0x3d25ea38	0.04050657
55	0x3de03e20	0.109493494
56	0xbcae845e	-0.021303352
57	0x3e015001	0.12628175
58	0x3da11924	0.07866123
59	0x3d4b001b	0.049560647
60	0xbc8327d7	-0.016010208
61	0x3e887455	0.26651254
62	0x3db247a3	0.0870507
63	0x3d38230a	0.04495529
64	0x3d7d2e30	0.061811626
65	0x3d86c02b	0.06579622
66	0xbde69aa8	-0.11259967
67	0x3dc8ae41	0.09798861
68	0xbd4a415d	-0.04937874
69	0xbdfca988	-0.12337023
70	0xbdb77f31	-0.08959807
71	0xbdcbf574	-0.09958926
72	0xbbf4ac3e	-0.007466822
73	0x3d04ad4a	0.032391824
74	0xbd9719fd	-0.07378004
75	0xbd98b56d	-0.07456479
76	0x3d428bb2	0.047496505
77	0xbd9ef709	-0.07761962
78	0xbd2821c2	-0.04104782
79	0x3cd1478d	0.025546813
80	0xbbfd28dd	-0.0077258185
81	0x3d0ac694	0.033880785
82	0xbb9feccf	-0.0048805247
83	0xbdac38de	-0.08409284
84	0xbdc5d00e	-0.09658824
85	0x3e1d0775	0.15334876
86	0xbd3f94ef	-0.046772894
87	0xbc67b168	-0.014141418
88	0x3d22c65e	0.03973996
89	0xbdaecf5c	-0.085356444
90	0xba95a46e	-0.0011416802
91	0x3d7864d5	0.060643036
92	0xbc6430f9	-0.013927692
93	0xbd952334	-0.07282105
94	0xbc9aeebc	-0.018912666
95	0x3c3eb75d	0.011640397
96	0x3c8accb9	0.016943322
97	0x3e189a75	0.1490267
98	0x3d44c37b	0.048037987
99	0x3da3989d	0.07988093
100	0x3de20eb2	0.11037959
101	0xbdc600d0	-0.09668124
102	0x3c8cc0ba	0.017181743
103	0x3d189722	0.037253506
104	0xbcb89036	-0.022529703
105	0xbcc1aa61	-0.023640813
106	0xbd1882de	-0.03723418
107	0xbd90d2e6	-0.07071476
108	0x3db5adb9	0.088710256
109	0x3e09aca4	0.13444763
110	0x3d3f9a9b	0.046778303
111	0xbdb9a2eb	-0.09064277
112	0x3d460884	0.048347965
113	0x3d8de689	0.06928737
114	0x3d9c64c9	0.07636411
115	0xbd17465b	-0.03693233
116	0x3e028355	0.12745412
117	0x3d336505	0.04379751
118	0xbd77691d	-0.06040298
119	0xbcf1296d	-0.029438699
120	0xbd6aecff	-0.057354923
121	0xbdb23801	-0.08702088
122	0x3de15d82	0.11004163
123	0xbcbe993f	-0.023266433
124	0xbd84dacd	-0.064870454
125	0x3ccc0702	0.024905685
126	0x3df2aa39	0.11848874
127	0xbd0238a4	-0.031792298
128	0xbd0bd99e	-0.034143083
129	0xbd2b28cc	-0.041786954
130	0xbdc6e283	-0.097111724
131	0x3e0b7643	0.13619332
132	0xbb8906da	-0.004181725
133	0xbd551223	-0.05201925
134	0x3d0a4f5b	0.033767086
135	0xbd57ca53	-0.052683186
136	0xbc926e39	-0.017874824
137	0x3cc17cd3	0.023619091
138	0x3dd25d07	0.1027165
139	0xbe041d6f	-0.12901853
140	0x3d3bf633	0.04588909
141	0xbe38db91	-0.18052508
142	0xbdde5c65	-0.108574666
143	0x3e554843	0.20828347
144	0xbe46782f	-0.19381784
145	0x3d904bde	0.070457205
146	0x3c068359	0.008210027
147	0xbe88efc9	-0.26745442
148	0xbd9fa08f	-0.07794296
149	0xbd379899	-0.044823263
150	0x3e2039a3	0.15646987
151	0x3d0c26ac	0.034216568
152	0x3dde7830	0.10862768
153	0xbdae55ce	-0.0851246
154	0x3bcc01ad	0.0062257857
155	0x3d8ab1cf	0.067721955
156	0x3e5c0873	0.21487598
157	0xbb152262	-0.002275609
158	0xbb9102b8	-0.004425373
159	0xbdf23937	-0.11827319
160	0x3d5fdba7	0.054652836
161	0xbd0de53a	-0.034642436
162	0xbdcf8645	-0.10133032
163	0x3e380e93	0.1797431
164	0x3e28c6e5	0.16482122
165	0x3e1b70ee	0.15179798
166	0x3e3709d9	0.1787485
167	0xbd6cf76b	-0.057853144
168	0x3d014422	0.031559117
169	0xbd74c754	-0.059760407
170	0xbd2763ea	-0.04086677
171	0xbac6b838	-0.0015161103
172	0x3ca54522	0.020174567
173	0xbd126c76	-0.035747968
174	0xbca52352	-0.020158444
175	0x3c625ca0	0.013816029
176	0x3e3a8e50	0.1821835
177	0x3e12a098	0.14319074
178	0x3c87c64e	0.016574051
179	0xbd74371e	-0.059622876
180	0xbe279c43	-0.16368203
181	0x3e6bf833	0.23043899
182	0xbd8fe371	-0.07025803
183	0x3e2adff2	0.16686991
184	0xbda38edb	-0.07986232
185	0x3e80ca61	0.25154403
186	0xbcda63f4	-0.02665899
187	0x3e62b022	0.22137502
188	0xbd60c13e	-0.05487179
189	0x3bedcac2	0.0072568366
190	0x3d8c6091	0.06854356
191	0xbccf5fb1	-0.025314184
192	0xbe215a4a	-0.15757099
193	0x3cf801fd	0.030274386
194	0x3dd021d2	0.10162701
195	0xbce48ba2	-0.027898613
196	0xbcf05420	-0.029336989
197	0x3cc0013d	0.02343809
198	0x3da8c9dd	0.08241627
199	0xbdc1dfb3	-0.09466495
200	0x3d7fbd88	0.06243661
201	0xbd793742	-0.060843714
202	0x3d7ae39a	0.061252214
203	0xbd20dce2	-0.03927315
204	0x3d34a56c	0.04410307
205	0xbdd2b1a8	-0.102877915
206	0x3d4352e7	0.047686484
207	0x3e25e936	0.16202244
208	0xbdd2c088	-0.10290629
209	0xbdb9e239	-0.09076352
210	0xbe016ba4	-0.12638718
211	0x3c6c295c	0.014414158
212	0x3da57141	0.08078242
213	0xbd58a2e3	-0.052889716
214	0x3dca138c	0.098670095
215	0x3da952a2	0.08267714
216	0x3e135da3	0.14391188
217	0x3c66b18a	0.014080415
218	0x3de3b60f	0.11118709
219	0x3cc96ff8	0.024589524
220	0xbc8d28ab	-0.017231306
221	0xbd466d24	-0.04844393
222	0xbcf22f78	-0.02956365
223	0x3e04dc7b	0.12974732
224	0xbd669541	-0.056294683
225	0x3de1efbc	0.11032054
226	0x3c09a477	0.008401028
227	0x3d2340b4	0.039856628
228	0xbd0ed34c	-0.034869477
229	0xbdac9d32	-0.0842842
230	0x3d8faa9d	0.07014964
231	0xbe02831e	-0.1274533
232	0xbdf8b07a	-0.12143035
233	0xbe2813f1	-0.16413857
234	0x3aa4381e	0.0012528931
235	0xbd82c9f7	-0.06386178
236	0x3ce07c43	0.027403003
237	0xbe4b99fb	-0.19882958
238	0xbcc8a381	-0.024492027
239	0xbd33696c	-0.04380171
240	0x3b4a5e0e	0.0030878815
241	0xba91de7d	-0.0011128929
242	0x3c8c4f26	0.017127585
243	0x3ce088d6	0.027408998
244	0xbc6177f7	-0.013761512
245	0xbd3efb15	-0.04662617
246	0x3cc8bfbc	0.024505489
247	0x3d87fb9b	0.06639787
248	0xbda0b3a2	-0.07846762
249	0x3e2c66d7	0.16836105
250	0xbbac5c54	-0.00526003
251	0x3e05c578	0.1306361
252	0xbdb08924	-0.086199075
253	0x3e147fd9	0.14501895
254	0xbd8d4109	-0.0689717
255	0xbd1226f0	-0.035681665

lstm.bias_ih_l0 f4 [256]
0	0x3e36b223	0.17841391
1	0xbde5028e	-0.11182128
2	0x3e411d4f	0.18858837
3	0x3db0905e	0.08621286
4	0x3da451f0	0.08023441
5	0x3dd701d3	0.10498395
6	0xbde3ab00	-0.111166
7	0x3dd82e59	0.10555715
8	0x3c6b0cef	0.014346345
9	0xbd7de5dd	-0.061986793
10	0x3e1cbd43	0.15306573
11	0xbddb5832	-0.10710181
12	0x3dfb2ee7	0.12264805
13	0x3da73481	0.08164311
14	0x3e0d7310	0.13813424
15	0xbd4f85c9	-0.050664697
16	0x3d263617	0.040578928
17	0x3d93745d	0.07199929
18	0xbd81f7f5	-0.06346122
19	0x3d6364c5	0.055516023
20	0x3e488754	0.19582874
21	0x3da82494	0.08210102
22	0x3dc9f1e6	0.098605916
23	0x3e879f2a	0.2648862
24	0x3cf37f21	0.029723706
25	0x3dbadf39	0.091246076
26	0x3c0d2deb	0.008616905
27	0x3d519a03	0.051172268
28	0x3e0cda2e	0.13755104
29	0xbdab04d6	-0.08350532
30	0x3cb324b4	0.021868087
31	0x3d5df7cb	0.054191392
32	0x3dc01e2b	0.09380754
33	0x3e300d63	0.17192607
34	0x3d9a9b51	0.075491555
35	0x3cd8a5b3	0.026446199
36	0x3dbbf72f	0.09178006
37	0x3dc2e29a	0.09515877
38	0x3c674c2f	0.014117285
39	0x3d18e310	0.03732592
40	0xbd1b3cd7	-0.03789982
41	0x3ddb839f	0.10718464
42	0x3dc3df44	0.09564069
43	0x3d533f7d	0.05157422
44	0xbcadf7f9	-0.021236407
45	0x3d079ef9	0.033110593
46	0xbce4b569	-0.027918534
47	0x3c1d5ada	0.00960418
48	0xbcd9a7b6	-0.026569229
49	0x3e1e4114	0.15454513
50	0xbc9b3145	-0.018944392
51	0x3ddd18c8	0.10795742
52	0x3d13db19	0.03609762
53	0x3e0476b6	0.1293591
54	0xbd6f0d6c	-0.05836241
55	0x3e05685f	0.13028096
56	0xbb7769b4	-0.0037752213
57	0x3d5f66f8	0.054541558
58	0xbdaefa30	-0.08543813
59	0xbcf6071f	-0.030032692
60	0x3e4a8e6d	0.19780894
61	0x3b1c2999	0.0023828505
62	0x3d8cf60a	0.06882866
63	0x3dfa9f44	0.12237409
64	0xbe09c490	-0.13453889
65	0x3b8d761d	0.0043170587
66	0x3db8b309	0.09018523
67	0x3da226cd	0.07917557
68	0xbe008f3e	-0.12554643
69	0xbc522b78	-0.012827747
70	0x3da81165	0.08206443
71	0x3d733b62	0.059382804
72	0xbca7c0a3	-0.020477599
73	0x3d594428	0.053043514
74	0x3e0fc828	0.14041197
75	0x3db562c9	0.088567324
76	0xbde51d10	-0.11187184
77	0x3dadef4b	0.08492907
78	0xbdd9b5c1	-0.1063037
79	0xbdf733ad	-0.12070403
80	0x3dbc5965	0.09196738
81	0x3c52a4ee	0.012856705
82	0xbd8ef69f	-0.06980633
83	0x3e329a31	0.17441632
84	0xbd4cd14b	-0.050004285
85	0x3beb4622	0.0071799913
86	0x3dd92270	0.106022716
87	0xbc4df22b	-0.012569944
88	0x3cf1f64f	0.029536394
89	0xbe24a505	-0.16078575
90	0x3e043803	0.12911992
91	0xbd4e0012	-0.050293036
92	0x3d85a11d	0.065248705
93	0x3d84c1a9	0.0648225
94	0xbcf8be41	-0.030364158
95	0x3c79e356	0.015251955
96	0x3dcc33f0	0.09970844
97	0xbc913669	-0.01772614
98	0xbd541045	-0.05177333
99	0x3ce63655	0.02810208
100	0x3dcd3fcd	0.10021935
101	0xbd7deb61	-0.061992053
102	0x3c7686a6	0.015046751
103	0x3da1af0b	0.07894715
104	0x3d99f9dd	0.07518361
105	0x3dfe4460	0.12415385
106	0x3d3b9b81	0.045802597
107	0xbdce78e8	-0.10081655
108	0x3d1cf350	0.03831798
109	0x3d3e6464	0.04648246
110	0x3dcf00a6	0.101075456
111	0xbd92d87d	-0.07170198
112	0xbcb5d572	-0.022196505
113	0x3d607ebe	0.05480837
114	0x3d629380	0.05531645
115	0x3d9bdf06	0.07610898
116	0xbddbfbd8	-0.10741395
117	0xbd87623c	-0.066105336
118	0xbd9de479	-0.07709593
119	0x3d3bde83	0.0458665
120	0x3cc33dc3	0.023833161
121	0xbde8df35	-0.11370698
122	0x3e26f13b	0.1630296
123	0x3d2a57a2	0.04158748
124	0x3e30950d	0.17244358
125	0x3c0af2db	0.008480753
126	0x3d6907f1	0.05689234
127	0xbdb8c973	-0.090227984
128	0xbdce1f9b	-0.10064622
129	0xbda9d898	-0.08293265
130	0xbd2ee884	-0.042702213
131	0x3daca090	0.08429062
132	0x3dbd95dd	0.092571
133	0xbd3df715	-0.046378214
134	0x3d83a0ad	0.06427131
135	0xbdb5d22b	-0.08877977
136	0xbde03309	-0.10947234
137	0xbd806e49	-0.06271035
138	0x3dc6e748	0.09712082
139	0x3cd54cff	0.026037691
140	0x3cef069d	0.029177958
141	0xbbcd4e21	-0.006265417
142	0xbd37f3f0	-0.04491037
143	0x3e208843	0.1567698
144	0xbe47980d	-0.19491597
145	0xbd7e9144	-0.062150255
146	0xbdcb21fc	-0.099185914
147	0xbe2e160c	-0.17000598
148	0x3d928ab1	0.071553595
149	0xbca4ca4e	-0.020115998
150	0x3e0bf1a9	0.13666405
151	0x3e1cb96b	0.15305106
152	0x3e3d8d96	0.18511042
153	0xbbc3fc59	-0.00598101
154	0x3d88779b	0.06663438
155	0x3d04f030	0.032455623
156	0x3e858f45	0.26085868
157	0xbd20ca3a	-0.03925536
158	0xbe05be61	-0.13060905
159	0x3c9318a6	0.01795609
160	0x3d703505	0.058644313
161	0x3db48600	0.08814621
162	0xbc96a45a	-0.018388916
163	0x3e0104aa	0.12599435
164	0x3db7ae77	0.089688234
165	0x3e4ca301	0.19984056
166	0x3e47381f	0.19455002
167	0xbe826211	-0.25465444
168	0xbe0640e3	-0.1311069
169	0xbe480990	-0.19534898
170	0xbd49d849	-0.04927853
171	0xbd089e44	-0.03335406
172	0x3d864086	0.065552756
173	0xbdec2060	-0.115296125
174	0x3d9157fa	0.07096858
175	0x3b234def	0.0024918278
176	0xbdf4b398	-0.11948317
177	0xbd90a723	-0.07063129
178	0x3dfdb5c9	0.123881884
179	0xbd392d20	-0.04520905
180	0x3d5b2e43	0.053510915
181	0xbd1b63f4	-0.03793712
182	0x3d9838fd	0.07432745
183	0x3e013993	0.12619619
184	0x3cba835b	0.022767713
185	0xbd665189	-0.0562301
186	0xbe0646e3	-0.13112979
187	0x3e212ac7	0.15738975
188	0xbd9e4ef3	-0.07729902
189	0x3dab2d8a	0.08358295
190	0x3dbec966	0.093157575
191	0x3decc20d	0.1156045
192	0x3db87e86	0.090085074
193	0x3dadfd75	0.08495609
194	0x3dbd4ab2	0.092427626
195	0xbd5bfa32	-0.0537054
196	0x3e1a7982	0.15085414
197	0xbdfdea50	-0.12398207
198	0x3d40d5da	0.047078945
199	0x3e0639b9	0.13107957
200	0x3dc2022c	0.094730705
201	0xbca7bfeb	-0.020477256
202	0x3e2de29f	0.1698098
203	0x3d9ea97c	0.0774717
204	0xbcdab75c	-0.02669876
205	0x3c86d111	0.016457113
206	0x3e0e68f9	0.13907231
207	0xbd224bcb	-0.039623063
208	0x3dbcd82b	0.09220918
209	0x3d8ba366	0.06818275
210	0x3dbae3e1	0.09125496
211	0x3e3d22f1	0.1847036
212	0x3de025c7	0.109447055
213	0x3bf4946b	0.007463982
214	0x3e06452f	0.13112329
215	0x3dccd87e	0.1000223
216	0x3e009660	0.12557364
217	0xbcc8db36	-0.02451859
218	0x3d6fddb1	0.05856103
219	0x3be481d4	0.0069734845
220	0x3da7fe63	0.08202817
221	0x3e13b261	0.14423515
222	0x3de32270	0.11090553
223	0x3df0af92	0.117522374
224	0x3e008f45	0.12554653
225	0x3d974315	0.07385842
226	0xbd5a52fb	-0.053301793
227	0xbc26cbbd	-0.010180411
228	0x3d88a983	0.06672957
229	0x3de3be1c	0.11120245
230	0xbceba3a5	-0.028764555
231	0x3dadd44f	0.0848776
232	0xbdd9fd98	-0.10644072
233	0xbdc219d8	-0.094775856
234	0x3d367df2	0.044553705
235	0xbe0079d8	-0.1254648
236	0x3d578cd1	0.052624527
237	0x3dc1b530	0.09458387
238	0x3e087a11	0.13327815
239	0xbd38846c	-0.045048162
240	0x3da77e87	0.0817843
241	0x3e44c68a	0.19216362
242	0xbdb71a3a	-0.08940549
243	0x3c7719e0	0.015081853
244	0x3b7759f0	0.0037742816
245	0xbcf5c782	-0.03000236
246	0xbd558e01	-0.05213738
247	0x3dfcac7a	0.12337585
248	0x3bd91eb5	0.006625975
249	0x3e41de3d	0.18932433
250	0x3be9a0d4	0.007129768
251	0x3d3cf62a	0.046133198
252	0x3dd8b2c2	0.1058097
253	0x3dea913a	0.11453481
254	0x3ced46c4	0.028964408
255	0x3dd2ff4b	0.103025995

lstm.bias_hh_l0 f4 [256]
0	0x3e0a6c30	0.13517833
1	0x3def0bec	0.11672196
2	0x3d39d769	0.045371447
3	0xbce3fde5	-0.027831027
4	0x3e0d3b9f	0.13792275
5	0x3dd210bb	0.10257097
6	0x3d2e1d4a	0.0425084
7	0x3de88857	0.1135413
8	0x3d7c2d0f	0.06156641
9	0x3dc1d244	0.09463933
10	0xbc418422	-0.011811288
11	0x3c2a1b32	0.01038246
12	0x3e2461e1	0.16052963
13	0xbdd3df8b	-0.10345372
14	0xbae395f8	-0.001736342
15	0x3de92429	0.1138385
16	0xbb4deeb0	-0.0031422786
17	0x3db6e7a2	0.08930899
18	0x3db68322	0.0891173
19	0xbbab99b9	-0.005236831
20	0x3d7f1bde	0.062282436
21	0xbda21534	-0.079142004
22	0xbb8329aa	-0.0040027695
23	0x3e844900	0.25836945
24	0x3c781fc8	0.015144296
25	0x3d155b80	0.036464214
26	0x3de008a8	0.10939151
27	0x3d036505	0.03207876
28	0x3e373cf6	0.17894349
29	0x3d3d4169	0.046204958
30	0x3e2f41af	0.171149
31	0xbce5acb2	-0.02803645
32	0x3e024f91	0.12725665
33	0x3e1bc5bd	0.1521215
34	0x3e066401	0.13124086
35	0x3d71c2e7	0.059023764
36	0x3d08f04d	0.033432294
37	0x3ddc628c	0.10760984
38	0x3dd0a8e8	0.10188466
39	0x3e1db7b5	0.1540211
40	0xbe159485	-0.14607437
41	0x3e51b3f7	0.20478807
42	0x3d8b7104	0.068086654
43	0x3dd201fd	0.102542855
44	0x3dd0d9b9	0.10197777
45	0x3dffc915	0.12489525
46	0x3e26d72d	0.1629302
47	0xbd9af418	-0.075660884
48	0xbdbe3eb3	-0.09289303
49	0x3e0ea4ae	0.13930008
50	0xbd97d18f	-0.07413017
51	0x3d48c998	0.04902038
52	0xbda24fe8	-0.07925397
53	0x3dcee467	0.10102158
54	0xbd0d2324	-0.03445734
55	0x3dd84284	0.10559562
56	0xbd399968	-0.045312315
57	0x3c99e045	0.018783698
58	0xbd1695c4	-0.03676392
59	0xbd7563fb	-0.059909802
60	0x3c3dc609	0.01158286
61	0x3e5ef698	0.21773756
62	0x3d3208a5	0.043465275
63	0x3da46f14	0.08028999
64	0x3d42012a	0.04736439
65	0x3d30168d	0.042990256
66	0x3e0c1dc6	0.13683233
67	0x3bba71cb	0.0056898347
68	0x3d8336a5	0.06406907
69	0x3d27fa7d	0.04101037
70	0xbcb505a5	-0.022097418
71	0x3e033679	0.12813748
72	0x3d85a85a	0.06526251
73	0x3b4918ef	0.0030685028
74	0x3d045c9f	0.032314893
75	0x3db4f483	0.088356994
76	0x3dbe60b0	0.092957854
77	0xbd2d9c00	-0.0423851
78	0x3df2784f	0.11839353
79	0xbc8668e4	-0.016407438
80	0xbdae9e17	-0.08526247
81	0x3d575d84	0.052579418
82	0x3ce1be7d	0.027556652
83	0x3e7eb873	0.2487505
84	0x3c81c402	0.015840534
85	0x399e314b	0.00030172835
86	0xbd3f99dd	-0.046777595
87	0x3e1337ca	0.1437675
88	0x3dfcad32	0.12337722
89	0xbd9340eb	-0.071901165
90	0x3d7f0764	0.062262908
91	0x3db2b377	0.087256365
92	0x3e6adaf3	0.22935085
93	0x3dc314bd	0.0952544
94	0x3da5f98f	0.0810424
95	0xbda78d03	-0.08181193
96	0xbd568ef2	-0.052382417
97	0xbdb44044	-0.0880132
98	0xbdcb5f1c	-0.0993025
99	0xbdeffd84	-0.11718276
100	0xbc928b59	-0.017888712
101	0xbdeff6ac	-0.11716971
102	0x3dbbe7ee	0.091750965
103	0x3b152171	0.0022755528
104	0xbb399480	-0.0028317273
105	0x3e04f578	0.12984264
106	0xbd1eb054	-0.03874238
107	0xbe0c6c9c	-0.13713306
108	0x3d85a0d1	0.06524814
109	0x3d6172b2	0.055041023
110	0xbd8489f6	-0.064716265
111	0x3de74057	0.11291569
112	0x3ca72937	0.020405395
113	0x3d7f2bfd	0.06229781
114	0x3d8f0837	0.06983989
115	0x3dbeea83	0.09322073
116	0xbd95a968	-0.07307702
117	0xbd3144a6	-0.04327836
118	0xbe0d33b3	-0.13789253
119	0x3e0f5b8f	0.1399977
120	0x3daf9c7c	0.08574769
121	0xbded61ad	-0.11590896
122	0x3be5d8c1	0.0070143645
123	0xbd8cb2b9	-0.06870026
124	0x3e395d76	0.18102059
125	0xbd18e9b0	-0.037332237
126	0x3c3e0ce3	0.011599752
127	0xbd481080	-0.04884386
128	0xbd4ed85c	-0.050499305
129	0xbc038396	-0.008026978
130	0x3c244112	0.01002528
131	0x3dff843b	0.12476393
132	0xbdc74030	-0.0972904
133	0xbdcaf950	-0.09910834
134	0xbdb65faa	-0.08904965
135	0x3d590bcd	0.05298977
136	0xbd90de3e	-0.07073639
137	0xbe1b9f32	-0.15197447
138	0x3e2dd721	0.16976596
139	0x3caa7f4f	0.020812659
140	0x3b1ddd5e	0.0024088244
141	0xbe3c3ddb	-0.18382971
142	0xbd3bf724	-0.04588999
143	0x3dc07172	0.09396638
144	0xbe34adff	-0.17644499
145	0x3e10c051	0.14135863
146	0x3d2d4a88	0.042307407
147	0xbdc2f0d6	-0.09518592
148	0x3decd579	0.11564154
149	0xbe0cf617	-0.13765751
150	0xbc39ee99	-0.01134839
151	0x3dc8334e	0.097754106
152	0x3ddf8150	0.10913336
153	0x3c340a20	0.010988742
154	0x3cf72faf	0.030174104
155	0xbe36c157	-0.17847191
156	0x3e950603	0.2910615
157	0x3d2ed11b	0.042679887
158	0xbdf7a1f7	-0.12091439
159	0xbddce37f	-0.10785579
160	0x3d6f6a01	0.058450703
161	0x3c531ac1	0.012884797
162	0x3b30dd22	0.0026987274
163	0xbd08fddf	-0.033445235
164	0xbd98590a	-0.07438858
165	0x3c6494ed	0.013951522
166	0x3e259b48	0.16172516
167	0xbe4f2457	-0.20228706
168	0xbdcbd6fd	-0.09953115
169	0xbdcbe506	-0.09955792
170	0xbde51863	-0.11186292
171	0xbd541309	-0.051775966
172	0x3d855d01	0.0651188
173	0x3d9df0c6	0.077119395
174	0x3d062316	0.032748304
175	0x3d045c1a	0.032314397
176	0x3d076e9f	0.03306448
177	0x3c2892c8	0.010288902
178	0x3e0ce582	0.13759425
179	0x3d4378b7	0.047722545
180	0xbdfa93da	-0.12235232
181	0xbc462257	-0.012093148
182	0xbdc96dbb	-0.098353826
183	0x3de1bfc8	0.110229075
184	0xbd803d81	-0.06261731
185	0x3d8ddaf1	0.069265254
186	0xbe279687	-0.16366015
187	0x3ea38b87	0.31942388
188	0x3d2b0685	0.041754264
189	0x3df151b4	0.11783162
190	0x3daaa5a4	0.08332375
191	0x3db57cc1	0.088616855
192	0x3e1f68a0	0.15567255
193	0x3dae9544	0.08524564
194	0x3d93b470	0.0721215
195	0x3e28396c	0.16428155
196	0xbd1ed85c	-0.038780555
197	0xbd13aae2	-0.03605164
198	0xbcf4c1c1	-0.029877545
199	0x3d84708b	0.06466778
200	0xbd21773d	-0.039420355
201	0xbc455ecd	-0.012046528
202	0x3d39ebd8	0.045390934
203	0x3de0de84	0.109799415
204	0x3cbf35d1	0.023341091
205	0xbbf3eea4	-0.0074442197
206	0xbc0bc7c9	-0.008531519
207	0xbd2e0628	-0.04248634
208	0x3d3c5357	0.045977917
209	0x3dada013	0.08477797
210	0xbca53f52	-0.020171795
211	0x3c40670e	0.01174332
212	0x3e046c55	0.1293195
213	0x3e1ef33f	0.15522479
214	0xbd90b770	-0.07066238
215	0x3dd9b626	0.10630445
216	0x3cd16b5f	0.025563894
217	0x3d2f3e62	0.042784102
218	0x3de54b85	0.11196045
219	0xbd310652	-0.04321892
220	0xbdaec00d	-0.085327245
221	0x3aed8ab6	0.0018123004
222	0xbc39506d	-0.011310679
223	0xbda6a6c3	-0.08137276
224	0x3d8d0dfb	0.06887432
225	0x3d347cfc	0.044064507
226	0xbdaa00bd	-0.08300922
227	0xbcc8fdf1	-0.024535151
228	0x3ccba34e	0.024858143
229	0xbc3d53b7	-0.011555604
230	0xbd933186	-0.0718718
231	0x3dbed149	0.09317262
232	0xbd3d9ae1	-0.046290282
233	0xbc2853bb	-0.010273869
234	0x3d846895	0.0646526
235	0x3c0c7fde	0.008575408
236	0x3dcb8b80	0.09938717
237	0x3e2ddeec	0.16979569
238	0xbd6b022c	-0.057375118
239	0xbda07136	-0.07834093
240	0x3c3d2e9b	0.011546756
241	0x3dc62e50	0.09676802
242	0x3d8b5f37	0.0680527
243	0xbd046be3	-0.03232945
244	0x3e09a930	0.13443446
245	0x3e001672	0.12508562
246	0x3c7a383d	0.015272197
247	0x3e238f00	0.15972519
248	0x3be5ad4b	0.0070091835
249	0x3d7e1d3e	0.062039606
250	0x3dc38c0e	0.09548198
251	0x3c8acc7c	0.016943209
252	0x3d03fda2	0.032224305
253	0x3cd639b1	0.026150556
254	0x3e6e1611	0.23250605
255	0xbd266e13	-0.04063232

lstm.weight_ih_l0_reverse f4 [256, 34]
0	0x3e258b54	0.1616643
1	0x3e1983a8	0.14991629
2	0x3e09d5e2	0.13460496
3	0x3d4d1ba5	0.050075192
4	0x3d3f5ceb	0.046719473
5	0x3de5ddaa	0.1122392
6	0x3e4170d1	0.18890692
7	0x3e41ea77	0.18937097
8	0x3e20346c	0.15644997
9	0x3dcccf1d	0.10000441
10	0xbd0a6ccf	-0.033795174
11	0x3d8657cb	0.06559714
12	0x3d93d4ad	0.07218299
13	0xbd40161c	-0.046896085
14	0x3e472fd5	0.1945184
15	0x3e05f087	0.13080035
16	0xbce5d6e2	-0.028056566
17	0x3de30be0	0.11086249
18	0xbce6b64a	-0.028163094
19	0xbc28a9d3	-0.0102943955
20	0x3de0f8b7	0.109849386
21	0x3d3db33b	0.046313506
22	0x3aab8d1b	0.0013088317
23	0x3dd36978	0.10322851
24	0x3d93fa12	0.072254315
25	0xbd868249	-0.06567819
26	0x3df66f37	0.12032931
27	0x3deaffa6	0.11474542
28	0x3df13ce7	0.11779194
29	0x3e08390c	0.13303012
30	0xbd634aa1	-0.055491094
31	0xbdae740a	-0.085182264
32	0xbd374c4d	-0.0447505
33	0xbcddb70e	-0.027064826
34	0xbda31832	-0.07963599
35	0xbd8fd05f	-0.070221655
36	0x3e11c429	0.14234985
37	0xbda6a2e8	-0.08136541
38	0xbdc51414	-0.0962297
39	0xbe05de5e	-0.13073108
40	0x3d86ad2e	0.06576
41	0x3cb4834e	0.022035267
42	0x3dc2b0a1	0.095063455
43	0xbd0c1451	-0.034199063
44	0xbced074e	-0.028934147
45	0xbe27c30f	-0.16383003
46	0xbe120961	-0.1426139
47	0x3d442619	0.047887895
48	0xbe42a0c1	-0.19006635
49	0xbded45ee	-0.11585604
50	0xbd833f19	-0.06408519
51	0xbd9ff65f	-0.078106634
52	0x3d606296	0.05478152
53	0x3d7ff4f3	0.06248946
54	0x3cfaba92	0.030606542
55	0x3d1d0f91	0.038344923
56	0xbe1fb73e	-0.15597245
57	0x3bcae34a	0.0061916457
58	0x3d5a3564	0.053273574
59	0x3db5235f	0.08844637
60	0x3bd9d643	0.0066478564
61	0xbd1c9b86	-0.038234256
62	0xbe28c000	-0.16479492
63	0x3df06046	0.11737113
64	0xbd91e799	-0.07124252
65	0x3dcc6253	0.09979691
66	0xbddf04e1	-0.108896025
67	0xbd488451	-0.04895431
68	0x3dc080b1	0.09399546
69	0x3c9f12d5	0.01941816
70	0x3e0347aa	0.12820306
71	0xbdaf96e1	-0.085737
72	0xbcb210b3	-0.021736478
73	0x3e118a9a	0.14213029
74	0xbd9987b9	-0.0749659
75	0xbd4c8e76	-0.04994055
76	0x3b2bc819	0.0026211797
77	0xbca7e294	-0.020493783
78	0x3d92e070	0.07171714
79	0xbdfa87b5	-0.12232915
80	0xbdd27720	-0.102766275
81	0x3d9beaab	0.07613119
82	0xbc6bcf8c	-0.014392745
83	0xbd9b331f	-0.0757811
84	0x3d1aaeb1	0.037764255
85	0x3dbaa9bb	0.09114405
86	0x3d8e7247	0.069553904
87	0x3c9b349f	0.01894599
88	0x3d0f1f44	0.034941927
89	0xbcb9c4cc	-0.022676848
90	0xbdc9b6be	-0.098493084
91	0xbd1e048f	-0.038578566
92	0x3ca74011	0.020416291
93	0x3c522284	0.012825612
94	0xbcb73a3b	-0.022366634
95	0x3d18a267	0.037264254
96	0xbe1051a6	-0.14093646
97	0xbd948f0f	-0.07253849
98	0x3d0ba965	0.034097094
99	0x3e282a66	0.16422424
100	0xbe2254d3	-0.1585267
101	0xbd52985b	-0.05141483
102	0x3e189a8c	0.14902705
103	0x3e2da141	0.16956045
104	0x3d31e6b7	0.043432917
105	0xbb58a4f0	-0.0033057295
106	0x3e2c74a5	0.16841371
107	0x3e36741d	0.17817731
108	0x3e71d5d8	0.23616731
109	0x3d8ff703	0.070295356
110	0x3d90e829	0.07075531
111	0xbdb1801c	-0.08667013
112	0xbd3a4601	-0.045476917
113	0xbd725655	-0.059164364
114	0xbd14740c	-0.036243483
115	0xbbd4a29a	-0.00648911
116	0xbd3475a8	-0.04405752
117	0x3e1096fe	0.14120099
118	0x3d2783b2	0.04089708
119	0x3d17b043	0.03703333
120	0x3e6eebf4	0.23332196
121	0x3dcf7794	0.101302296
122	0xbd0929bc	-0.033487067
123	0x3df40cb6	0.11916487
124	0x3d401e75	0.046904046
125	0x3dfdb9a0	0.12388921
126	0x3d28e66e	0.04123538
127	0x3cdfe585	0.027331123
128	0xbdb7bd97	-0.08971708
129	0x3e124efa	0.1428794
130	0x3dd80f54	0.105497986
131	0x3e5a64fe	0.21327588
132	0xbda1ac85	-0.078942336
133	0x3e6728f0	0.2257421
134	0x3db38317	0.08765238
135	0x3db4d7ef	0.088302486
136	0x3df70bda	0.120628074
137	0xbd637a67	-0.055536654
138	0x3e493f36	0.1965302
139	0x3da653da	0.08121462
140	0x3c2352cb	0.00996847
141	0x3df5ece6	0.120080754
142	0x3d534daf	0.051587757
143	0x3d1ca9bb	0.038247805
144	0x3be4d60d	0.0069835247
145	0x3e05ab32	0.13053587
146	0xbcc6edcc	-0.024283312
147	0x3e75f6d6	0.24019942
148	0xbd1eff76	-0.038817845
149	0x3de21a65	0.110401906
150	0xbd15cd92	-0.036573
151	0xbd6c8148	-0.05774048
152	0x3b81a09c	0.0039559137
153	0x3e36303a	0.17791834
154	0xbd16ab90	-0.03678471
155	0x3db6ae4b	0.089199625
156	0x3d2a86d9	0.041632507
157	0x3d94d2e7	0.07266789
158	0x3e2f6e1f	0.17131852
159	0x3d6b2810	0.057411253
160	0x3dd7728c	0.10519895
161	0x3e39b104	0.18133932
162	0x3d7f3290	0.06230408
163	0x3e1e4b32	0.15458372
164	0x3e43bc9c	0.19114918
165	0x3e1d6249	0.15369524
166	0x3d05606c	0.03256266
167	0x3e5aa823	0.21353202
168	0x3de43b79	0.11144156
169	0x3e6347c6	0.22195348
170	0xbd9406bd	-0.07227848
171	0xbe4b031a	-0.19825402
172	0xbd33516b	-0.043778818
173	0x3d625de8	0.055265337
174	0xbda3543b	-0.0797505
175	0xbe22e1cb	-0.15906446
176	0xbdcbb54b	-0.09946688
177	0x3d84e5f9	0.06489176
178	0xbe21d04c	-0.15802115
179	0xb80ced66	-3.3599696e-05
180	0xbe012f69	-0.12615742
181	0x3e2ebf68	0.17065203
182	0x3d630ff2	0.05543513
183	0x3e09596e	0.13413021
184	0xbde5c2fe	-0.112188324
185	0xbd84265f	-0.06452631
186	0xbd6c054d	-0.057622243
187	0x3d17d224	0.03706564
188	0xbe2e1f17	-0.17004047
189	0xbbf048e9	-0.0073329103
190	0x3d6b4e11	0.057447497
191	0x3dc657a2	0.096846834
192	0x3c5fbb15	0.013655444
193	0xbd6d384b	-0.057915013
194	0xbd6cc8c8	-0.057808667
195	0xbdbb72aa	-0.0915273
196	0xbda9882c	-0.08277926
197	0xbe0617c0	-0.13094997
198	0x3df60aa5	0.12013749
199	0xbd52747e	-0.051380627
200	0x3c1dacd6	0.009623727
201	0xbcafd3a8	-0.02146323
202	0x3c833bfd	0.016019816
203	0xbdb626a9	-0.088940926
204	0xbe09450b	-0.13405244
205	0xbe0899b0	-0.13339877
206	0x3db94a68	0.09047395
207	0x3d2ad01f	0.041702386
208	0x3d57a41c	0.05264674
209	0xbda1d665	-0.07902221
210	0xbcbcb6e5	-0.02303643
211	0xbdcf0cb3	-0.10109844
212	0xbd9124d4	-0.070871025
213	0x3de7f601	0.113262184
214	0x3d1fe10b	0.039032977
215	0x3c9e1cf6	0.019300919
216	0xbcf07ea3	-0.02935726
217	0x3dabf464	0.08396223
218	0x3d72c325	0.059268136
219	0x3d647286	0.05577328
220	0x3da66aed	0.08125863
221	0xb7928338	-1.746566e-05
222	0xbd8b8876	-0.06813137
223	0xbe012f98	-0.12615812
224	0x3d7b8b73	0.061412286
225	0xbd69f454	-0.057117775
226	0xbc458e7a	-0.012057895
227	0xbcaa3a3e	-0.020779725
228	0x3e2c57d2	0.16830376
229	0x3e59e304	0.21278006
230	0x3e19599a	0.14975587
231	0xbcf0cea6	-0.029395413
232	0x3d265b4c	0.04061441
233	0x3d21975c	0.03945099
234	0x3e6e56b4	0.23275262
235	0x3ccb9892	0.024853025
236	0x3d11127b	0.035418015
237	0x3e3c65e5	0.18398245
238	0x3e3456bc	0.17611212
239	0xbc5c06a1	-0.013429315
240	0x3e802207	0.2502596
241	0x3de9f804	0.11424258
242	0x3ca9bfb3	0.020721292
243	0xbcc91075	-0.02454398
244	0x3df29a57	0.11845844
245	0x3e0194a5	0.1265436
246	0x3e0d310b	0.1378824
247	0x3db10fec	0.08645615
248	0x3c73c68e	0.014878882
249	0x3e796f6b	0.24358909
250	0x3e47b762	0.19503549
251	0x3e4b694a	0.19864383
252	0x3d8cd9cd	0.0687748
253	0x3e313257	0.1730436
254	0xbdbfebb8	-0.09371132
255	0x3de36ee1	0.11105133

lstm.weight_hh_l0_reverse f4 [256, 64]
0	0xbd62a2ac	-0.055330917
1	0xbce5674a	-0.028003354
2	0xbdb15929	-0.08659584
3	0x3cbd6976	0.023121577
4	0x3d3d858f	0.04626995
5	0xbe1224af	-0.14271806
6	0xbcecc9aa	-0.028904755
7	0xbc937637	-0.018000705
8	0x3d844de6	0.064601704
9	0x3d08ee73	0.033430528
10	0x3dfcd5a5	0.12345437
11	0x3e03a96e	0.12857601
12	0xbdaf4dbc	-0.085597485
13	0xba014e0d	-0.000493259
14	0xbcfb4725	-0.030673573
15	0xbd8abb20	-0.067739725
16	0xbcb1653b	-0.021654716
17	0xbdea62bd	-0.11444614
18	0x3db36ea0	0.087613344
19	0xbd2f0fc1	-0.042739633
20	0x3cac5953	0.021038687
21	0x3e299619	0.16561164
22	0x3d3da2f4	0.046297982
23	0xbcf8e0fc	-0.030380718
24	0xbd7241a5	-0.059144635
25	0xbc554a3f	-0.01301819
26	0x3d72a825	0.059242386
27	0x3d6a973c	0.057273135
28	0xbdfd3cd8	-0.12365121
29	0xbdb8dc4e	-0.09026395
30	0xbc9fb44a	-0.019495148
31	0x3d938014	0.07202163
32	0xbe07d791	-0.13265826
33	0xbe20e6f7	-0.15713106
34	0xbe28953e	-0.16463181
35	0x3d1d6658	0.03842768
36	0x3d99558d	0.07487021
37	0xbc230cb2	-0.009951757
38	0x3c0981eb	0.008392791
39	0xbda6dd57	-0.08147686
40	0x3d9443b9	0.072394796
41	0x3db847a0	0.089980364
42	0x3d7c331c	0.06157218
43	0xbd2b0203	-0.041749965
44	0xbd576ba8	-0.052592903
45	0xbcab5a8c	-0.0209172
46	0x3b1cf61b	0.0023950401
47	0xbdd1338d	-0.10214911
48	0x3d019a5b	0.031641345
49	0x3dc5c2f0	0.09656322
50	0xbcfe8268	-0.031068042
51	0x3c2c734a	0.010525534
52	0x3bd5a18d	0.0065195025
53	0xbcfd387d	-0.030910725
54	0x3d44845c	0.04797779
55	0x3d92c4ae	0.0716642
56	0xbcdca35b	-0.026933363
57	0xbd0f070f	-0.03491884
58	0x3a7be58e	0.00096090965
59	0x3d38a957	0.04508337
60	0xbd2f11f4	-0.04274173
61	0x3d4813a9	0.048846874
62	0x3e13ff7c	0.14452928
63	0x3da3d670	0.07999885
64	0x3d4fb7ef	0.050712522
65	0xbdec5472	-0.11539544
66	0x3c0be7b9	0.008539134
67	0x3d7829c5	0.06058671
68	0x3e11b65f	0.14229725
69	0xbd604021	-0.054748658
70	0x3da54a4a	0.0807081
71	0x3df2062f	0.11817586
72	0xbd203185	-0.039109726
73	0xbc80b3b8	-0.015710697
74	0xbce2482a	-0.027622301
75	0x3c119843	0.0088864
76	0xbd6e1ac6	-0.058131002
77	0xbd0c452a	-0.034245647
78	0x3d4386ae	0.047735862
79	0x3d0639a1	0.032769803
80	0x3e143b3f	0.14475726
81	0x3cb70245	0.02233995
82	0x3b3b6ea1	0.0028599876
83	0xbd1b0eec	-0.037856027
84	0xbe3dab83	-0.18522458
85	0x3e29df09	0.16588987
86	0xbd71c3c4	-0.059024587
87	0xbce85a87	-0.02836348
88	0xbd2879af	-0.04113167
89	0x3c22c68e	0.009935034
90	0xbd02d299	-0.031939123
91	0xbe170b8d	-0.147505
92	0xbd29cc80	-0.041454792
93	0xbdc4495a	-0.09584303
94	0x3d474f92	0.04865987
95	0xbdc55675	-0.09635631
96	0xbad448bf	-0.0016195996
97	0x3bb2f036	0.0054607643
98	0x3cd6c083	0.026214844
99	0xbde6ba44	-0.11265996
100	0xbd70a7e6	-0.05875387
101	0xbcf1c3e1	-0.029512348
102	0xbe142ed7	-0.14470993
103	0xbd2916b4	-0.041281417
104	0x3dd06406	0.10175328
105	0x3de2c66a	0.11073001
106	0x3df3252d	0.11872325
107	0xbaed2c26	-0.0018094822
108	0x3d81d4c7	0.06339412
109	0x3d3a505a	0.045486785
110	0x3db8fb6f	0.09032332
111	0x3d8c03a7	0.06836634
112	0xbde59668	-0.11210328
113	0x3e1317f1	0.14364602
114	0xbbfb185d	-0.0076628164
115	0xbe4169c2	-0.18888
116	0x3ceb6661	0.028735342
117	0xbd26f827	-0.040764
118	0x3de16160	0.11004901
119	0x3d5bacbd	0.053631533
120	0x3daeaca7	0.085290246
121	0x3d7a5a48	0.061121255
122	0xbd21bce1	-0.03948677
123	0xbd725ce1	-0.059170607
124	0x3e0059f8	0.1253432
125	0xbc0b0e2c	-0.008487266
126	0x3ce72ce7	0.028219653
127	0x3d66a5cf	0.05631047
128	0xbdb12b9b	-0.08650895
129	0x3ce5eb2f	0.028066246
130	0xbdd3f25b	-0.1034896
131	0x3d0b9420	0.03407681
132	0xbe433f0a	-0.19067016
133	0x3c70963a	0.014684254
134	0xbdb30654	-0.08741441
135	0x3b6344d0	0.0034678467
136	0x3c38fccf	0.011290743
137	0xbd0c47fe	-0.034248345
138	0x3cb95c36	0.022626977
139	0xbdb67628	-0.08909255
140	0x3ccdcfc7	0.02512349
141	0xbe1ca856	-0.1529859
142	0xbd6290e1	-0.05531395
143	0xbd9bd9e2	-0.07609917
144	0x3e678a70	0.22611403
145	0x3dbea61d	0.09309027
146	0xbbccde91	-0.006252118
147	0x3c694192	0.014236825
148	0x3e0396e4	0.12850529
149	0xbdf1bd04	-0.1180363
150	0x3d36f63c	0.04466842
151	0xbd6a4c2f	-0.05720156
152	0x3d02f902	0.031975754
153	0x3c8f1109	0.017464178
154	0x3db6a16d	0.08917508
155	0x3d2ae5ad	0.041722942
156	0xbdbd3feb	-0.09240707
157	0xbe521865	-0.20517118
158	0x3deb475b	0.11488219
159	0xbdca0fd4	-0.098663
160	0x3e27ddfd	0.16393276
161	0x3c53c40a	0.012925157
162	0x3c71fa9e	0.014769224
163	0xbdf86de6	-0.121303365
164	0x3d1d534d	0.03840952
165	0x3dd888d0	0.1057297
166	0xbd308572	-0.043096013
167	0x3cfad3fe	0.030618664
168	0x3baeca3f	0.005334168
169	0x3d87c2e1	0.06628967
170	0x3da5b6c5	0.08091501
171	0x3d757178	0.059922665
172	0xbd07058c	-0.032964274
173	0xbdc62869	-0.096756764
174	0xbe21bc22	-0.15794423
175	0x3d9a32bc	0.07529208
176	0xbdb6550f	-0.089029424
177	0xbcefe768	-0.029285148
178	0x3dd17466	0.10227279
179	0xbde51a9a	-0.111867145
180	0xbd36eb26	-0.04465785
181	0x3c726fd9	0.014797174
182	0x3d6c5108	0.057694465
183	0xbcf07e34	-0.029357053
184	0x3d362caf	0.044476207
185	0xbd352f96	-0.044234835
186	0xbd77f690	-0.060537875
187	0x3dafcc6a	0.08583911
188	0xbe0534b4	-0.13008386
189	0xbd8442d4	-0.06458059
190	0xbde93db2	-0.113887206
191	0x3e130531	0.14357449
192	0x3dcff2e1	0.10153747
193	0xbc0f57ef	-0.008748992
194	0x3d505277	0.050859895
195	0x3dbac0d2	0.09118809
196	0xbd7b82bc	-0.061403975
197	0xbda74a64	-0.08168486
198	0xbd86906f	-0.06570517
199	0x3c11af43	0.008891883
200	0x3e1018d2	0.14071968
201	0xbb3d8d25	-0.002892324
202	0x3d057a06	0.032587074
203	0x3d583091	0.05278069
204	0xbdbd7157	-0.092501335
205	0xbcb0a741	-0.021564128
206	0x3d8009ae	0.06251846
207	0x3da911ff	0.082553856
208	0x3d2ad54d	0.041707326
209	0xbd7bedfe	-0.061506264
210	0xbdc144a3	-0.094369195
211	0xbbfa22f5	-0.0076335617
212	0xbd9022e4	-0.07037905
213	0xba769ba7	-0.0009407349
214	0xbe223164	-0.15839154
215	0x3d266a2d	0.0406286
216	0xbc3133da	-0.010815585
217	0x3e2a1de7	0.1661297
218	0xbd462cce	-0.048382573
219	0xbe2f9500	-0.17146683
220	0xbdb94747	-0.09046798
221	0xbd9d70d2	-0.076875344
222	0xbd7e6d1c	-0.062115774
223	0xbc080b41	-0.008303464
224	0xbcf76d24	-0.03020341
225	0xbdb911db	-0.09036609
226	0x3d53709e	0.051621072
227	0xbde4548d	-0.11148939
228	0x3d083cc6	0.033261083
229	0xbca4226a	-0.020035941
230	0x3e0d873a	0.13821116
231	0xbd5589bb	-0.052133303
232	0xbd6ab295	-0.057299215
233	0xbde2a4b0	-0.11066568
234	0x3c258515	0.01010253
235	0xbc94c85e	-0.018161949
236	0xbcef7607	-0.029231085
237	0x3dc4d766	0.096113965
238	0xbc3de050	-0.011589125
239	0xbdb91648	-0.09037453
240	0x3d4dcf17	0.050246324
241	0xbd6d904c	-0.05799894
242	0x3d5f429b	0.05450688
243	0xbe2ab676	-0.16671166
244	0xbd87281e	-0.065994486
245	0x3d16073d	0.036627997
246	0x3e01db7e	0.12681386
247	0x3e522cab	0.20524852
248	0x3d3344cc	0.04376678
249	0xbe422e35	-0.18962939
250	0x3d2e2809	0.04251865
251	0xbd9a48a5	-0.07533387
252	0x3c160941	0.00915748
253	0xbb1370d0	-0.0022497661
254	0x3d4fea31	0.05076045
255	0x3e07a726	0.13247356

lstm.bias_ih_l0_reverse f4 [256]
0	0xbcb25432	-0.021768663
1	0x3da82d50	0.08211768
2	0x3d171be4	0.036891833
3	0x3db04e18	0.08608645
4	0x3de98158	0.114016235
5	0x3ca66b0e	0.02031472
6	0x3e0aab05	0.13541801
7	0x3e47baf7	0.19504915
8	0xbd894f98	-0.067046344
9	0x3d98f3ba	0.07468362
10	0xbd5bde7f	-0.053678986
11	0xbd7eac64	-0.062176123
12	0x3da0c21f	0.07849526
13	0x3d992882	0.074784294
14	0x3db9baa3	0.09068801
15	0x3d80356b	0.06260189
16	0x3cc87724	0.024470873
17	0xbd8177ed	-0.06321702
18	0x3dcf4fc2	0.101226345
19	0x3cd511e6	0.026009511
20	0xbc109ce9	-0.008826473
21	0x3df87130	0.12130964
22	0xbdac72f0	-0.0842036
23	0xbd9bb5bc	-0.076030225
24	0x3cf80199	0.0302742
25	0x3d2abb10	0.041682303
26	0x3d6d2abd	0.057902087
27	0xbd966e1c	-0.073452204
28	0x3e868aaf	0.26277682
29	0x3dd711b9	0.10501427
30	0x3d54f5e8	0.051992327
31	0xbdac3815	-0.08409134
32	0x3e0da247	0.13831435
33	0xbc65d5ad	-0.014027995
34	0x3d987259	0.07443685
35	0x3dd2d39f	0.1029427
36	0xbd60b2c0	-0.05485797
37	0xbd97dced	-0.07415185
38	0x3dff7726	0.12473898
39	0x3df28565	0.11841849
40	0xbdc9a113	-0.098451756
41	0x3d779dbf	0.060453173
42	0x3d9afc81	0.075676925
43	0x3d910488	0.070809424
44	0x3e1dfea4	0.15429169
45	0xbdfa430f	-0.12219822
46	0xbde387ce	-0.11109887
47	0xbd67fd3e	-0.056637995
48	0x3dae50b7	0.08511489
49	0x3e1c3ac9	0.152568
50	0x3d470a3f	0.048593756
51	0x3e123dbd	0.14281364
52	0x3d01d7bc	0.03169988
53	0x3e0e8967	0.13919602
54	0x3e2f97af	0.17147706
55	0x3e1cf5ad	0.15328093
56	0x3d9cef71	0.07662857
57	0x3de1a3e2	0.11017586
58	0x3e020141	0.12695791
59	0x3c7a889d	0.01529136
60	0x3dd10891	0.10206712
61	0xbc0f9724	-0.008764062
62	0xbd4d1d19	-0.050076578
63	0x3ddb8dbc	0.10720393
64	0x3b351934	0.002763343
65	0xbd6fe294	-0.05856569
66	0xbd8302cf	-0.0639702
67	0x3be66257	0.007030766
68	0xbd9e0d8a	-0.07717426
69	0x3d9b54c0	0.07584524
70	0xbd648a74	-0.0557961
71	0x3d0ef732	0.034903713
72	0x3d6e4e19	0.05817995
73	0xbcaee74c	-0.021350525
74	0xbdaa7a61	-0.08324123
75	0x3db01687	0.08598047
76	0x3d83b978	0.0643186
77	0xbdc2b4ff	-0.095071785
78	0x3d1773d8	0.03697571
79	0xbdaea31b	-0.08527204
80	0x3d38457d	0.044988144
81	0xbb52c086	-0.003215821
82	0xbd87fb60	-0.06639743
83	0xbdc1bb05	-0.09459499
84	0xbdf5e2b4	-0.12006131
85	0xbd37b172	-0.04484696
86	0x3c913f9f	0.017730532
87	0x3dff21d9	0.12457628
88	0xbdb14178	-0.08655065
89	0x3dcf7bb5	0.10131017
90	0x3a7b9c02	0.0009598137
91	0xbd5d54d0	-0.05403596
92	0x3d855a50	0.06511366
93	0x3d82b8d7	0.06382912
94	0xbb35b62b	-0.0027726989
95	0x3d0cd7ae	0.034385376
96	0xbd0e8d9c	-0.034803018
97	0x3d9fce5a	0.0780303
98	0x3dbae5bb	0.09125849
99	0x3db35aa0	0.0875752
100	0x3dd5707f	0.104218476
101	0x3b1e350c	0.0024140505
102	0xbdcab5ed	-0.09897981
103	0xbd93bab4	-0.07213345
104	0xbda8d82e	-0.08244358
105	0xbdc6fa26	-0.09715681
106	0xbd2e1c23	-0.042507302
107	0xbdd531dc	-0.104099005
108	0xbdf4ce91	-0.11953462
109	0x3d246436	0.04013463
110	0xbd605339	-0.054766867
111	0x3e08d99f	0.13364266
112	0x3deb04e7	0.114755444
113	0x3d72b484	0.059254184
114	0xbd1907c9	-0.03736094
115	0x3bfe79a2	0.0077659646
116	0x3d8f7748	0.07005173
117	0xbd93239a	-0.07184525
118	0x3ccb6d3a	0.024832357
119	0xbe24da63	-0.16098933
120	0xbd3cb744	-0.046073213
121	0x39fb8a5c	0.00047977536
122	0x3d940aa8	0.07228595
123	0x3dba31a4	0.090914994
124	0xbd0bf4fb	-0.03416918
125	0x3d9a4b2f	0.075338714
126	0x3de1eecd	0.11031876
127	0x3d80fda8	0.06298381
128	0x3c7895db	0.015172447
129	0x3de35232	0.11099662
130	0xbc06e20d	-0.008232606
131	0x3d4a634f	0.049411114
132	0xbd99565d	-0.074871756
133	0xbd6a9569	-0.057271395
134	0xbd8db629	-0.0691951
135	0x3c9bdad1	0.019025238
136	0x3c2bc8ff	0.010484933
137	0x3dff85e9	0.12476713
138	0xbdb5b946	-0.08873229
139	0xbd098845	-0.033577222
140	0x3d006fae	0.031356506
141	0xbcb63593	-0.022242343
142	0x3dea9056	0.11453311
143	0xbdfac15e	-0.12243913
144	0xbc2f58bc	-0.010702308
145	0xbd145f8e	-0.03622394
146	0xbd870a0b	-0.065937124
147	0x3da7fa88	0.08202082
148	0x3d81f7a4	0.06346062
149	0xbd9b7dec	-0.07592377
150	0xbc3f2030	-0.011665389
151	0x3d9fa14b	0.07794436
152	0x3df14286	0.117802665
153	0x3ad2670c	0.0016052439
154	0xbc4d0e72	-0.012515651
155	0x3e0776b8	0.13228881
156	0xbe04efe1	-0.12982132
157	0xbdbfc71c	-0.09364149
158	0xbce1156f	-0.02747604
159	0x3dbaf3a9	0.09128506
160	0xbd103bd9	-0.035213325
161	0xbdc2f8a0	-0.09520078
162	0xbd8da94e	-0.06917058
163	0xbdf2ed7d	-0.118617035
164	0xbca7851c	-0.020449214
165	0x3daeabf1	0.08528889
166	0xbd382e2e	-0.044965915
167	0xbdfc877a	-0.123305276
168	0x3d602a2d	0.054727722
169	0x3d053b8a	0.032527484
170	0x3d874da6	0.06606607
171	0x3d733efd	0.059386242
172	0xbde5a73a	-0.112135366
173	0xbc07fb20	-0.008299619
174	0x3d9f76b3	0.07786312
175	0xbcf87879	-0.030330883
176	0x3cc6f02f	0.02428445
177	0x3d21fce5	0.03954782
178	0xbd1b835e	-0.03796708
179	0x3dbd03cf	0.09229242
180	0x3c6f00b7	0.014587573
181	0x3e196934	0.14981538
182	0x3d5482ac	0.05188243
183	0xbe3cfad0	-0.18455052
184	0x3e1b2e52	0.15154389
185	0xbd3113b1	-0.04323167
186	0x3d46cbf7	0.04853436
187	0xbd7c961f	-0.061666604
188	0x3d359dde	0.044340007
189	0x3d5dce35	0.054151732
190	0x3d8fe5de	0.070262656
191	0x3dc7ec88	0.09761912
192	0xbdec8f55	-0.11550776
193	0xbd50a10e	-0.050934844
194	0xbde0c6ad	-0.109753944
195	0x3bd795c1	0.0065791314
196	0x3ca68d82	0.020331148
197	0xbdd53e1e	-0.104122385
198	0x3de2387b	0.11045929
199	0x3d7b86b0	0.061407745
200	0xbd5364ee	-0.051609926
201	0xbdffad68	-0.124842465
202	0x3d902ff0	0.07040393
203	0x3ddf4825	0.10902432
204	0x3bdee1df	0.0068018283
205	0x3c8fa908	0.017536655
206	0x3d0df66e	0.03465884
207	0x3dc1bd6d	0.09459958
208	0x3e43762e	0.1908805
209	0x3da49d00	0.08037758
210	0x3df022ac	0.11725363
211	0x3df97aeb	0.12181648
212	0x3bacce4b	0.0052736155
213	0xbbc98bf5	-0.0061507174
214	0x3d0043d8	0.0313147
215	0xbd0403ee	-0.03223031
216	0x39c115fa	0.00036828202
217	0x3dcd5f3f	0.100279324
218	0x3e29cd71	0.16582276
219	0xbd88fb64	-0.06688574
220	0x3e4154df	0.18880032
221	0x3d962030	0.07330358
222	0x3db2603f	0.08709764
223	0x3d556ae8	0.052103907
224	0x3e076e23	0.13225608
225	0x3e0596a1	0.13045742
226	0x3d5aeeb9	0.05345032
227	0x3ba5d022	0.0050602118
228	0xbbbcbee1	-0.005760059
229	0x3e03c984	0.12869841
230	0x3d2fa584	0.042882457
231	0x3e12cb67	0.14335404
232	0xbda18729	-0.07887108
233	0xbdd80de1	-0.10549522
234	0x3da80e25	0.08205823
235	0xbda854ed	-0.08219323
236	0x3c15216b	0.009102206
237	0xbdf6d857	-0.12052982
238	0xbd82451c	-0.06360838
239	0xbdc4bb7d	-0.09606073
240	0x3df39418	0.11893481
241	0x3e2e935a	0.17048398
242	0x3c6f72a3	0.014614734
243	0x3d2511cd	0.04030018
244	0xbca5d434	-0.020242788
245	0xbd2c85cb	-0.042119782
246	0x3dbe8780	0.09303188
247	0x3db04bd8	0.08608216
248	0xbd38b693	-0.04509599
249	0xbcea75f0	-0.02862069
250	0x3c9df590	0.019282132
251	0xbdec541a	-0.115394786
252	0xbdd11e07	-0.102108054
253	0xbdb18fbc	-0.08669993
254	0xbc2deffa	-0.010616297
255	0xbdad4fa4	-0.08462456
